module @module {
  util.global private @__auto.token_embd.weight = #stream.parameter.named<"model"::"token_embd.weight"> : tensor<128256x4096xf16>
  util.global private @__auto.blk.0.attn_norm.weight = #stream.parameter.named<"model"::"blk.0.attn_norm.weight"> : tensor<4096xf32>
  util.global private @__auto.blk.0.attn_q.weight = #stream.parameter.named<"model"::"blk.0.attn_q.weight"> : tensor<4096x4096xf16>
  util.global private @__auto.blk.0.attn_k.weight = #stream.parameter.named<"model"::"blk.0.attn_k.weight"> : tensor<1024x4096xf16>
  util.global private @__auto.blk.0.attn_v.weight = #stream.parameter.named<"model"::"blk.0.attn_v.weight"> : tensor<1024x4096xf16>
  util.global private @__auto.constant_8192_64_torch.complex64 = dense_resource<__auto.constant_8192_64_torch.complex64> : tensor<8192x64xcomplex<f32>>
  util.global private @__auto.blk.0.attn_output.weight = #stream.parameter.named<"model"::"blk.0.attn_output.weight"> : tensor<4096x4096xf16>
  util.global private @__auto.blk.0.ffn_norm.weight = #stream.parameter.named<"model"::"blk.0.ffn_norm.weight"> : tensor<4096xf32>
  util.global private @__auto.blk.0.ffn_gate.weight = #stream.parameter.named<"model"::"blk.0.ffn_gate.weight"> : tensor<14336x4096xf16>
  util.global private @__auto.blk.0.ffn_up.weight = #stream.parameter.named<"model"::"blk.0.ffn_up.weight"> : tensor<14336x4096xf16>
  util.global private @__auto.blk.0.ffn_down.weight = #stream.parameter.named<"model"::"blk.0.ffn_down.weight"> : tensor<4096x14336xf16>
  util.global private @__auto.blk.1.attn_norm.weight = #stream.parameter.named<"model"::"blk.1.attn_norm.weight"> : tensor<4096xf32>
  util.global private @__auto.blk.1.attn_q.weight = #stream.parameter.named<"model"::"blk.1.attn_q.weight"> : tensor<4096x4096xf16>
  util.global private @__auto.blk.1.attn_k.weight = #stream.parameter.named<"model"::"blk.1.attn_k.weight"> : tensor<1024x4096xf16>
  util.global private @__auto.blk.1.attn_v.weight = #stream.parameter.named<"model"::"blk.1.attn_v.weight"> : tensor<1024x4096xf16>
  util.global private @__auto.blk.1.attn_output.weight = #stream.parameter.named<"model"::"blk.1.attn_output.weight"> : tensor<4096x4096xf16>
  util.global private @__auto.blk.1.ffn_norm.weight = #stream.parameter.named<"model"::"blk.1.ffn_norm.weight"> : tensor<4096xf32>
  util.global private @__auto.blk.1.ffn_gate.weight = #stream.parameter.named<"model"::"blk.1.ffn_gate.weight"> : tensor<14336x4096xf16>
  util.global private @__auto.blk.1.ffn_up.weight = #stream.parameter.named<"model"::"blk.1.ffn_up.weight"> : tensor<14336x4096xf16>
  util.global private @__auto.blk.1.ffn_down.weight = #stream.parameter.named<"model"::"blk.1.ffn_down.weight"> : tensor<4096x14336xf16>
  util.global private @__auto.blk.2.attn_norm.weight = #stream.parameter.named<"model"::"blk.2.attn_norm.weight"> : tensor<4096xf32>
  util.global private @__auto.blk.2.attn_q.weight = #stream.parameter.named<"model"::"blk.2.attn_q.weight"> : tensor<4096x4096xf16>
  util.global private @__auto.blk.2.attn_k.weight = #stream.parameter.named<"model"::"blk.2.attn_k.weight"> : tensor<1024x4096xf16>
  util.global private @__auto.blk.2.attn_v.weight = #stream.parameter.named<"model"::"blk.2.attn_v.weight"> : tensor<1024x4096xf16>
  util.global private @__auto.blk.2.attn_output.weight = #stream.parameter.named<"model"::"blk.2.attn_output.weight"> : tensor<4096x4096xf16>
  util.global private @__auto.blk.2.ffn_norm.weight = #stream.parameter.named<"model"::"blk.2.ffn_norm.weight"> : tensor<4096xf32>
  util.global private @__auto.blk.2.ffn_gate.weight = #stream.parameter.named<"model"::"blk.2.ffn_gate.weight"> : tensor<14336x4096xf16>
  util.global private @__auto.blk.2.ffn_up.weight = #stream.parameter.named<"model"::"blk.2.ffn_up.weight"> : tensor<14336x4096xf16>
  util.global private @__auto.blk.2.ffn_down.weight = #stream.parameter.named<"model"::"blk.2.ffn_down.weight"> : tensor<4096x14336xf16>
  util.global private @__auto.blk.3.attn_norm.weight = #stream.parameter.named<"model"::"blk.3.attn_norm.weight"> : tensor<4096xf32>
  util.global private @__auto.blk.3.attn_q.weight = #stream.parameter.named<"model"::"blk.3.attn_q.weight"> : tensor<4096x4096xf16>
  util.global private @__auto.blk.3.attn_k.weight = #stream.parameter.named<"model"::"blk.3.attn_k.weight"> : tensor<1024x4096xf16>
  util.global private @__auto.blk.3.attn_v.weight = #stream.parameter.named<"model"::"blk.3.attn_v.weight"> : tensor<1024x4096xf16>
  util.global private @__auto.blk.3.attn_output.weight = #stream.parameter.named<"model"::"blk.3.attn_output.weight"> : tensor<4096x4096xf16>
  util.global private @__auto.blk.3.ffn_norm.weight = #stream.parameter.named<"model"::"blk.3.ffn_norm.weight"> : tensor<4096xf32>
  util.global private @__auto.blk.3.ffn_gate.weight = #stream.parameter.named<"model"::"blk.3.ffn_gate.weight"> : tensor<14336x4096xf16>
  util.global private @__auto.blk.3.ffn_up.weight = #stream.parameter.named<"model"::"blk.3.ffn_up.weight"> : tensor<14336x4096xf16>
  util.global private @__auto.blk.3.ffn_down.weight = #stream.parameter.named<"model"::"blk.3.ffn_down.weight"> : tensor<4096x14336xf16>
  util.global private @__auto.blk.4.attn_norm.weight = #stream.parameter.named<"model"::"blk.4.attn_norm.weight"> : tensor<4096xf32>
  util.global private @__auto.blk.4.attn_q.weight = #stream.parameter.named<"model"::"blk.4.attn_q.weight"> : tensor<4096x4096xf16>
  util.global private @__auto.blk.4.attn_k.weight = #stream.parameter.named<"model"::"blk.4.attn_k.weight"> : tensor<1024x4096xf16>
  util.global private @__auto.blk.4.attn_v.weight = #stream.parameter.named<"model"::"blk.4.attn_v.weight"> : tensor<1024x4096xf16>
  util.global private @__auto.blk.4.attn_output.weight = #stream.parameter.named<"model"::"blk.4.attn_output.weight"> : tensor<4096x4096xf16>
  util.global private @__auto.blk.4.ffn_norm.weight = #stream.parameter.named<"model"::"blk.4.ffn_norm.weight"> : tensor<4096xf32>
  util.global private @__auto.blk.4.ffn_gate.weight = #stream.parameter.named<"model"::"blk.4.ffn_gate.weight"> : tensor<14336x4096xf16>
  util.global private @__auto.blk.4.ffn_up.weight = #stream.parameter.named<"model"::"blk.4.ffn_up.weight"> : tensor<14336x4096xf16>
  util.global private @__auto.blk.4.ffn_down.weight = #stream.parameter.named<"model"::"blk.4.ffn_down.weight"> : tensor<4096x14336xf16>
  util.global private @__auto.blk.5.attn_norm.weight = #stream.parameter.named<"model"::"blk.5.attn_norm.weight"> : tensor<4096xf32>
  util.global private @__auto.blk.5.attn_q.weight = #stream.parameter.named<"model"::"blk.5.attn_q.weight"> : tensor<4096x4096xf16>
  util.global private @__auto.blk.5.attn_k.weight = #stream.parameter.named<"model"::"blk.5.attn_k.weight"> : tensor<1024x4096xf16>
  util.global private @__auto.blk.5.attn_v.weight = #stream.parameter.named<"model"::"blk.5.attn_v.weight"> : tensor<1024x4096xf16>
  util.global private @__auto.blk.5.attn_output.weight = #stream.parameter.named<"model"::"blk.5.attn_output.weight"> : tensor<4096x4096xf16>
  util.global private @__auto.blk.5.ffn_norm.weight = #stream.parameter.named<"model"::"blk.5.ffn_norm.weight"> : tensor<4096xf32>
  util.global private @__auto.blk.5.ffn_gate.weight = #stream.parameter.named<"model"::"blk.5.ffn_gate.weight"> : tensor<14336x4096xf16>
  util.global private @__auto.blk.5.ffn_up.weight = #stream.parameter.named<"model"::"blk.5.ffn_up.weight"> : tensor<14336x4096xf16>
  util.global private @__auto.blk.5.ffn_down.weight = #stream.parameter.named<"model"::"blk.5.ffn_down.weight"> : tensor<4096x14336xf16>
  util.global private @__auto.blk.6.attn_norm.weight = #stream.parameter.named<"model"::"blk.6.attn_norm.weight"> : tensor<4096xf32>
  util.global private @__auto.blk.6.attn_q.weight = #stream.parameter.named<"model"::"blk.6.attn_q.weight"> : tensor<4096x4096xf16>
  util.global private @__auto.blk.6.attn_k.weight = #stream.parameter.named<"model"::"blk.6.attn_k.weight"> : tensor<1024x4096xf16>
  util.global private @__auto.blk.6.attn_v.weight = #stream.parameter.named<"model"::"blk.6.attn_v.weight"> : tensor<1024x4096xf16>
  util.global private @__auto.blk.6.attn_output.weight = #stream.parameter.named<"model"::"blk.6.attn_output.weight"> : tensor<4096x4096xf16>
  util.global private @__auto.blk.6.ffn_norm.weight = #stream.parameter.named<"model"::"blk.6.ffn_norm.weight"> : tensor<4096xf32>
  util.global private @__auto.blk.6.ffn_gate.weight = #stream.parameter.named<"model"::"blk.6.ffn_gate.weight"> : tensor<14336x4096xf16>
  util.global private @__auto.blk.6.ffn_up.weight = #stream.parameter.named<"model"::"blk.6.ffn_up.weight"> : tensor<14336x4096xf16>
  util.global private @__auto.blk.6.ffn_down.weight = #stream.parameter.named<"model"::"blk.6.ffn_down.weight"> : tensor<4096x14336xf16>
  util.global private @__auto.blk.7.attn_norm.weight = #stream.parameter.named<"model"::"blk.7.attn_norm.weight"> : tensor<4096xf32>
  util.global private @__auto.blk.7.attn_q.weight = #stream.parameter.named<"model"::"blk.7.attn_q.weight"> : tensor<4096x4096xf16>
  util.global private @__auto.blk.7.attn_k.weight = #stream.parameter.named<"model"::"blk.7.attn_k.weight"> : tensor<1024x4096xf16>
  util.global private @__auto.blk.7.attn_v.weight = #stream.parameter.named<"model"::"blk.7.attn_v.weight"> : tensor<1024x4096xf16>
  util.global private @__auto.blk.7.attn_output.weight = #stream.parameter.named<"model"::"blk.7.attn_output.weight"> : tensor<4096x4096xf16>
  util.global private @__auto.blk.7.ffn_norm.weight = #stream.parameter.named<"model"::"blk.7.ffn_norm.weight"> : tensor<4096xf32>
  util.global private @__auto.blk.7.ffn_gate.weight = #stream.parameter.named<"model"::"blk.7.ffn_gate.weight"> : tensor<14336x4096xf16>
  util.global private @__auto.blk.7.ffn_up.weight = #stream.parameter.named<"model"::"blk.7.ffn_up.weight"> : tensor<14336x4096xf16>
  util.global private @__auto.blk.7.ffn_down.weight = #stream.parameter.named<"model"::"blk.7.ffn_down.weight"> : tensor<4096x14336xf16>
  util.global private @__auto.blk.8.attn_norm.weight = #stream.parameter.named<"model"::"blk.8.attn_norm.weight"> : tensor<4096xf32>
  util.global private @__auto.blk.8.attn_q.weight = #stream.parameter.named<"model"::"blk.8.attn_q.weight"> : tensor<4096x4096xf16>
  util.global private @__auto.blk.8.attn_k.weight = #stream.parameter.named<"model"::"blk.8.attn_k.weight"> : tensor<1024x4096xf16>
  util.global private @__auto.blk.8.attn_v.weight = #stream.parameter.named<"model"::"blk.8.attn_v.weight"> : tensor<1024x4096xf16>
  util.global private @__auto.blk.8.attn_output.weight = #stream.parameter.named<"model"::"blk.8.attn_output.weight"> : tensor<4096x4096xf16>
  util.global private @__auto.blk.8.ffn_norm.weight = #stream.parameter.named<"model"::"blk.8.ffn_norm.weight"> : tensor<4096xf32>
  util.global private @__auto.blk.8.ffn_gate.weight = #stream.parameter.named<"model"::"blk.8.ffn_gate.weight"> : tensor<14336x4096xf16>
  util.global private @__auto.blk.8.ffn_up.weight = #stream.parameter.named<"model"::"blk.8.ffn_up.weight"> : tensor<14336x4096xf16>
  util.global private @__auto.blk.8.ffn_down.weight = #stream.parameter.named<"model"::"blk.8.ffn_down.weight"> : tensor<4096x14336xf16>
  util.global private @__auto.blk.9.attn_norm.weight = #stream.parameter.named<"model"::"blk.9.attn_norm.weight"> : tensor<4096xf32>
  util.global private @__auto.blk.9.attn_q.weight = #stream.parameter.named<"model"::"blk.9.attn_q.weight"> : tensor<4096x4096xf16>
  util.global private @__auto.blk.9.attn_k.weight = #stream.parameter.named<"model"::"blk.9.attn_k.weight"> : tensor<1024x4096xf16>
  util.global private @__auto.blk.9.attn_v.weight = #stream.parameter.named<"model"::"blk.9.attn_v.weight"> : tensor<1024x4096xf16>
  util.global private @__auto.blk.9.attn_output.weight = #stream.parameter.named<"model"::"blk.9.attn_output.weight"> : tensor<4096x4096xf16>
  util.global private @__auto.blk.9.ffn_norm.weight = #stream.parameter.named<"model"::"blk.9.ffn_norm.weight"> : tensor<4096xf32>
  util.global private @__auto.blk.9.ffn_gate.weight = #stream.parameter.named<"model"::"blk.9.ffn_gate.weight"> : tensor<14336x4096xf16>
  util.global private @__auto.blk.9.ffn_up.weight = #stream.parameter.named<"model"::"blk.9.ffn_up.weight"> : tensor<14336x4096xf16>
  util.global private @__auto.blk.9.ffn_down.weight = #stream.parameter.named<"model"::"blk.9.ffn_down.weight"> : tensor<4096x14336xf16>
  util.global private @__auto.blk.10.attn_norm.weight = #stream.parameter.named<"model"::"blk.10.attn_norm.weight"> : tensor<4096xf32>
  util.global private @__auto.blk.10.attn_q.weight = #stream.parameter.named<"model"::"blk.10.attn_q.weight"> : tensor<4096x4096xf16>
  util.global private @__auto.blk.10.attn_k.weight = #stream.parameter.named<"model"::"blk.10.attn_k.weight"> : tensor<1024x4096xf16>
  util.global private @__auto.blk.10.attn_v.weight = #stream.parameter.named<"model"::"blk.10.attn_v.weight"> : tensor<1024x4096xf16>
  util.global private @__auto.blk.10.attn_output.weight = #stream.parameter.named<"model"::"blk.10.attn_output.weight"> : tensor<4096x4096xf16>
  util.global private @__auto.blk.10.ffn_norm.weight = #stream.parameter.named<"model"::"blk.10.ffn_norm.weight"> : tensor<4096xf32>
  util.global private @__auto.blk.10.ffn_gate.weight = #stream.parameter.named<"model"::"blk.10.ffn_gate.weight"> : tensor<14336x4096xf16>
  util.global private @__auto.blk.10.ffn_up.weight = #stream.parameter.named<"model"::"blk.10.ffn_up.weight"> : tensor<14336x4096xf16>
  util.global private @__auto.blk.10.ffn_down.weight = #stream.parameter.named<"model"::"blk.10.ffn_down.weight"> : tensor<4096x14336xf16>
  util.global private @__auto.blk.11.attn_norm.weight = #stream.parameter.named<"model"::"blk.11.attn_norm.weight"> : tensor<4096xf32>
  util.global private @__auto.blk.11.attn_q.weight = #stream.parameter.named<"model"::"blk.11.attn_q.weight"> : tensor<4096x4096xf16>
  util.global private @__auto.blk.11.attn_k.weight = #stream.parameter.named<"model"::"blk.11.attn_k.weight"> : tensor<1024x4096xf16>
  util.global private @__auto.blk.11.attn_v.weight = #stream.parameter.named<"model"::"blk.11.attn_v.weight"> : tensor<1024x4096xf16>
  util.global private @__auto.blk.11.attn_output.weight = #stream.parameter.named<"model"::"blk.11.attn_output.weight"> : tensor<4096x4096xf16>
  util.global private @__auto.blk.11.ffn_norm.weight = #stream.parameter.named<"model"::"blk.11.ffn_norm.weight"> : tensor<4096xf32>
  util.global private @__auto.blk.11.ffn_gate.weight = #stream.parameter.named<"model"::"blk.11.ffn_gate.weight"> : tensor<14336x4096xf16>
  util.global private @__auto.blk.11.ffn_up.weight = #stream.parameter.named<"model"::"blk.11.ffn_up.weight"> : tensor<14336x4096xf16>
  util.global private @__auto.blk.11.ffn_down.weight = #stream.parameter.named<"model"::"blk.11.ffn_down.weight"> : tensor<4096x14336xf16>
  util.global private @__auto.blk.12.attn_norm.weight = #stream.parameter.named<"model"::"blk.12.attn_norm.weight"> : tensor<4096xf32>
  util.global private @__auto.blk.12.attn_q.weight = #stream.parameter.named<"model"::"blk.12.attn_q.weight"> : tensor<4096x4096xf16>
  util.global private @__auto.blk.12.attn_k.weight = #stream.parameter.named<"model"::"blk.12.attn_k.weight"> : tensor<1024x4096xf16>
  util.global private @__auto.blk.12.attn_v.weight = #stream.parameter.named<"model"::"blk.12.attn_v.weight"> : tensor<1024x4096xf16>
  util.global private @__auto.blk.12.attn_output.weight = #stream.parameter.named<"model"::"blk.12.attn_output.weight"> : tensor<4096x4096xf16>
  util.global private @__auto.blk.12.ffn_norm.weight = #stream.parameter.named<"model"::"blk.12.ffn_norm.weight"> : tensor<4096xf32>
  util.global private @__auto.blk.12.ffn_gate.weight = #stream.parameter.named<"model"::"blk.12.ffn_gate.weight"> : tensor<14336x4096xf16>
  util.global private @__auto.blk.12.ffn_up.weight = #stream.parameter.named<"model"::"blk.12.ffn_up.weight"> : tensor<14336x4096xf16>
  util.global private @__auto.blk.12.ffn_down.weight = #stream.parameter.named<"model"::"blk.12.ffn_down.weight"> : tensor<4096x14336xf16>
  util.global private @__auto.blk.13.attn_norm.weight = #stream.parameter.named<"model"::"blk.13.attn_norm.weight"> : tensor<4096xf32>
  util.global private @__auto.blk.13.attn_q.weight = #stream.parameter.named<"model"::"blk.13.attn_q.weight"> : tensor<4096x4096xf16>
  util.global private @__auto.blk.13.attn_k.weight = #stream.parameter.named<"model"::"blk.13.attn_k.weight"> : tensor<1024x4096xf16>
  util.global private @__auto.blk.13.attn_v.weight = #stream.parameter.named<"model"::"blk.13.attn_v.weight"> : tensor<1024x4096xf16>
  util.global private @__auto.blk.13.attn_output.weight = #stream.parameter.named<"model"::"blk.13.attn_output.weight"> : tensor<4096x4096xf16>
  util.global private @__auto.blk.13.ffn_norm.weight = #stream.parameter.named<"model"::"blk.13.ffn_norm.weight"> : tensor<4096xf32>
  util.global private @__auto.blk.13.ffn_gate.weight = #stream.parameter.named<"model"::"blk.13.ffn_gate.weight"> : tensor<14336x4096xf16>
  util.global private @__auto.blk.13.ffn_up.weight = #stream.parameter.named<"model"::"blk.13.ffn_up.weight"> : tensor<14336x4096xf16>
  util.global private @__auto.blk.13.ffn_down.weight = #stream.parameter.named<"model"::"blk.13.ffn_down.weight"> : tensor<4096x14336xf16>
  util.global private @__auto.blk.14.attn_norm.weight = #stream.parameter.named<"model"::"blk.14.attn_norm.weight"> : tensor<4096xf32>
  util.global private @__auto.blk.14.attn_q.weight = #stream.parameter.named<"model"::"blk.14.attn_q.weight"> : tensor<4096x4096xf16>
  util.global private @__auto.blk.14.attn_k.weight = #stream.parameter.named<"model"::"blk.14.attn_k.weight"> : tensor<1024x4096xf16>
  util.global private @__auto.blk.14.attn_v.weight = #stream.parameter.named<"model"::"blk.14.attn_v.weight"> : tensor<1024x4096xf16>
  util.global private @__auto.blk.14.attn_output.weight = #stream.parameter.named<"model"::"blk.14.attn_output.weight"> : tensor<4096x4096xf16>
  util.global private @__auto.blk.14.ffn_norm.weight = #stream.parameter.named<"model"::"blk.14.ffn_norm.weight"> : tensor<4096xf32>
  util.global private @__auto.blk.14.ffn_gate.weight = #stream.parameter.named<"model"::"blk.14.ffn_gate.weight"> : tensor<14336x4096xf16>
  util.global private @__auto.blk.14.ffn_up.weight = #stream.parameter.named<"model"::"blk.14.ffn_up.weight"> : tensor<14336x4096xf16>
  util.global private @__auto.blk.14.ffn_down.weight = #stream.parameter.named<"model"::"blk.14.ffn_down.weight"> : tensor<4096x14336xf16>
  util.global private @__auto.blk.15.attn_norm.weight = #stream.parameter.named<"model"::"blk.15.attn_norm.weight"> : tensor<4096xf32>
  util.global private @__auto.blk.15.attn_q.weight = #stream.parameter.named<"model"::"blk.15.attn_q.weight"> : tensor<4096x4096xf16>
  util.global private @__auto.blk.15.attn_k.weight = #stream.parameter.named<"model"::"blk.15.attn_k.weight"> : tensor<1024x4096xf16>
  util.global private @__auto.blk.15.attn_v.weight = #stream.parameter.named<"model"::"blk.15.attn_v.weight"> : tensor<1024x4096xf16>
  util.global private @__auto.blk.15.attn_output.weight = #stream.parameter.named<"model"::"blk.15.attn_output.weight"> : tensor<4096x4096xf16>
  util.global private @__auto.blk.15.ffn_norm.weight = #stream.parameter.named<"model"::"blk.15.ffn_norm.weight"> : tensor<4096xf32>
  util.global private @__auto.blk.15.ffn_gate.weight = #stream.parameter.named<"model"::"blk.15.ffn_gate.weight"> : tensor<14336x4096xf16>
  util.global private @__auto.blk.15.ffn_up.weight = #stream.parameter.named<"model"::"blk.15.ffn_up.weight"> : tensor<14336x4096xf16>
  util.global private @__auto.blk.15.ffn_down.weight = #stream.parameter.named<"model"::"blk.15.ffn_down.weight"> : tensor<4096x14336xf16>
  util.global private @__auto.blk.16.attn_norm.weight = #stream.parameter.named<"model"::"blk.16.attn_norm.weight"> : tensor<4096xf32>
  util.global private @__auto.blk.16.attn_q.weight = #stream.parameter.named<"model"::"blk.16.attn_q.weight"> : tensor<4096x4096xf16>
  util.global private @__auto.blk.16.attn_k.weight = #stream.parameter.named<"model"::"blk.16.attn_k.weight"> : tensor<1024x4096xf16>
  util.global private @__auto.blk.16.attn_v.weight = #stream.parameter.named<"model"::"blk.16.attn_v.weight"> : tensor<1024x4096xf16>
  util.global private @__auto.blk.16.attn_output.weight = #stream.parameter.named<"model"::"blk.16.attn_output.weight"> : tensor<4096x4096xf16>
  util.global private @__auto.blk.16.ffn_norm.weight = #stream.parameter.named<"model"::"blk.16.ffn_norm.weight"> : tensor<4096xf32>
  util.global private @__auto.blk.16.ffn_gate.weight = #stream.parameter.named<"model"::"blk.16.ffn_gate.weight"> : tensor<14336x4096xf16>
  util.global private @__auto.blk.16.ffn_up.weight = #stream.parameter.named<"model"::"blk.16.ffn_up.weight"> : tensor<14336x4096xf16>
  util.global private @__auto.blk.16.ffn_down.weight = #stream.parameter.named<"model"::"blk.16.ffn_down.weight"> : tensor<4096x14336xf16>
  util.global private @__auto.blk.17.attn_norm.weight = #stream.parameter.named<"model"::"blk.17.attn_norm.weight"> : tensor<4096xf32>
  util.global private @__auto.blk.17.attn_q.weight = #stream.parameter.named<"model"::"blk.17.attn_q.weight"> : tensor<4096x4096xf16>
  util.global private @__auto.blk.17.attn_k.weight = #stream.parameter.named<"model"::"blk.17.attn_k.weight"> : tensor<1024x4096xf16>
  util.global private @__auto.blk.17.attn_v.weight = #stream.parameter.named<"model"::"blk.17.attn_v.weight"> : tensor<1024x4096xf16>
  util.global private @__auto.blk.17.attn_output.weight = #stream.parameter.named<"model"::"blk.17.attn_output.weight"> : tensor<4096x4096xf16>
  util.global private @__auto.blk.17.ffn_norm.weight = #stream.parameter.named<"model"::"blk.17.ffn_norm.weight"> : tensor<4096xf32>
  util.global private @__auto.blk.17.ffn_gate.weight = #stream.parameter.named<"model"::"blk.17.ffn_gate.weight"> : tensor<14336x4096xf16>
  util.global private @__auto.blk.17.ffn_up.weight = #stream.parameter.named<"model"::"blk.17.ffn_up.weight"> : tensor<14336x4096xf16>
  util.global private @__auto.blk.17.ffn_down.weight = #stream.parameter.named<"model"::"blk.17.ffn_down.weight"> : tensor<4096x14336xf16>
  util.global private @__auto.blk.18.attn_norm.weight = #stream.parameter.named<"model"::"blk.18.attn_norm.weight"> : tensor<4096xf32>
  util.global private @__auto.blk.18.attn_q.weight = #stream.parameter.named<"model"::"blk.18.attn_q.weight"> : tensor<4096x4096xf16>
  util.global private @__auto.blk.18.attn_k.weight = #stream.parameter.named<"model"::"blk.18.attn_k.weight"> : tensor<1024x4096xf16>
  util.global private @__auto.blk.18.attn_v.weight = #stream.parameter.named<"model"::"blk.18.attn_v.weight"> : tensor<1024x4096xf16>
  util.global private @__auto.blk.18.attn_output.weight = #stream.parameter.named<"model"::"blk.18.attn_output.weight"> : tensor<4096x4096xf16>
  util.global private @__auto.blk.18.ffn_norm.weight = #stream.parameter.named<"model"::"blk.18.ffn_norm.weight"> : tensor<4096xf32>
  util.global private @__auto.blk.18.ffn_gate.weight = #stream.parameter.named<"model"::"blk.18.ffn_gate.weight"> : tensor<14336x4096xf16>
  util.global private @__auto.blk.18.ffn_up.weight = #stream.parameter.named<"model"::"blk.18.ffn_up.weight"> : tensor<14336x4096xf16>
  util.global private @__auto.blk.18.ffn_down.weight = #stream.parameter.named<"model"::"blk.18.ffn_down.weight"> : tensor<4096x14336xf16>
  util.global private @__auto.blk.19.attn_norm.weight = #stream.parameter.named<"model"::"blk.19.attn_norm.weight"> : tensor<4096xf32>
  util.global private @__auto.blk.19.attn_q.weight = #stream.parameter.named<"model"::"blk.19.attn_q.weight"> : tensor<4096x4096xf16>
  util.global private @__auto.blk.19.attn_k.weight = #stream.parameter.named<"model"::"blk.19.attn_k.weight"> : tensor<1024x4096xf16>
  util.global private @__auto.blk.19.attn_v.weight = #stream.parameter.named<"model"::"blk.19.attn_v.weight"> : tensor<1024x4096xf16>
  util.global private @__auto.blk.19.attn_output.weight = #stream.parameter.named<"model"::"blk.19.attn_output.weight"> : tensor<4096x4096xf16>
  util.global private @__auto.blk.19.ffn_norm.weight = #stream.parameter.named<"model"::"blk.19.ffn_norm.weight"> : tensor<4096xf32>
  util.global private @__auto.blk.19.ffn_gate.weight = #stream.parameter.named<"model"::"blk.19.ffn_gate.weight"> : tensor<14336x4096xf16>
  util.global private @__auto.blk.19.ffn_up.weight = #stream.parameter.named<"model"::"blk.19.ffn_up.weight"> : tensor<14336x4096xf16>
  util.global private @__auto.blk.19.ffn_down.weight = #stream.parameter.named<"model"::"blk.19.ffn_down.weight"> : tensor<4096x14336xf16>
  util.global private @__auto.blk.20.attn_norm.weight = #stream.parameter.named<"model"::"blk.20.attn_norm.weight"> : tensor<4096xf32>
  util.global private @__auto.blk.20.attn_q.weight = #stream.parameter.named<"model"::"blk.20.attn_q.weight"> : tensor<4096x4096xf16>
  util.global private @__auto.blk.20.attn_k.weight = #stream.parameter.named<"model"::"blk.20.attn_k.weight"> : tensor<1024x4096xf16>
  util.global private @__auto.blk.20.attn_v.weight = #stream.parameter.named<"model"::"blk.20.attn_v.weight"> : tensor<1024x4096xf16>
  util.global private @__auto.blk.20.attn_output.weight = #stream.parameter.named<"model"::"blk.20.attn_output.weight"> : tensor<4096x4096xf16>
  util.global private @__auto.blk.20.ffn_norm.weight = #stream.parameter.named<"model"::"blk.20.ffn_norm.weight"> : tensor<4096xf32>
  util.global private @__auto.blk.20.ffn_gate.weight = #stream.parameter.named<"model"::"blk.20.ffn_gate.weight"> : tensor<14336x4096xf16>
  util.global private @__auto.blk.20.ffn_up.weight = #stream.parameter.named<"model"::"blk.20.ffn_up.weight"> : tensor<14336x4096xf16>
  util.global private @__auto.blk.20.ffn_down.weight = #stream.parameter.named<"model"::"blk.20.ffn_down.weight"> : tensor<4096x14336xf16>
  util.global private @__auto.blk.21.attn_norm.weight = #stream.parameter.named<"model"::"blk.21.attn_norm.weight"> : tensor<4096xf32>
  util.global private @__auto.blk.21.attn_q.weight = #stream.parameter.named<"model"::"blk.21.attn_q.weight"> : tensor<4096x4096xf16>
  util.global private @__auto.blk.21.attn_k.weight = #stream.parameter.named<"model"::"blk.21.attn_k.weight"> : tensor<1024x4096xf16>
  util.global private @__auto.blk.21.attn_v.weight = #stream.parameter.named<"model"::"blk.21.attn_v.weight"> : tensor<1024x4096xf16>
  util.global private @__auto.blk.21.attn_output.weight = #stream.parameter.named<"model"::"blk.21.attn_output.weight"> : tensor<4096x4096xf16>
  util.global private @__auto.blk.21.ffn_norm.weight = #stream.parameter.named<"model"::"blk.21.ffn_norm.weight"> : tensor<4096xf32>
  util.global private @__auto.blk.21.ffn_gate.weight = #stream.parameter.named<"model"::"blk.21.ffn_gate.weight"> : tensor<14336x4096xf16>
  util.global private @__auto.blk.21.ffn_up.weight = #stream.parameter.named<"model"::"blk.21.ffn_up.weight"> : tensor<14336x4096xf16>
  util.global private @__auto.blk.21.ffn_down.weight = #stream.parameter.named<"model"::"blk.21.ffn_down.weight"> : tensor<4096x14336xf16>
  util.global private @__auto.blk.22.attn_norm.weight = #stream.parameter.named<"model"::"blk.22.attn_norm.weight"> : tensor<4096xf32>
  util.global private @__auto.blk.22.attn_q.weight = #stream.parameter.named<"model"::"blk.22.attn_q.weight"> : tensor<4096x4096xf16>
  util.global private @__auto.blk.22.attn_k.weight = #stream.parameter.named<"model"::"blk.22.attn_k.weight"> : tensor<1024x4096xf16>
  util.global private @__auto.blk.22.attn_v.weight = #stream.parameter.named<"model"::"blk.22.attn_v.weight"> : tensor<1024x4096xf16>
  util.global private @__auto.blk.22.attn_output.weight = #stream.parameter.named<"model"::"blk.22.attn_output.weight"> : tensor<4096x4096xf16>
  util.global private @__auto.blk.22.ffn_norm.weight = #stream.parameter.named<"model"::"blk.22.ffn_norm.weight"> : tensor<4096xf32>
  util.global private @__auto.blk.22.ffn_gate.weight = #stream.parameter.named<"model"::"blk.22.ffn_gate.weight"> : tensor<14336x4096xf16>
  util.global private @__auto.blk.22.ffn_up.weight = #stream.parameter.named<"model"::"blk.22.ffn_up.weight"> : tensor<14336x4096xf16>
  util.global private @__auto.blk.22.ffn_down.weight = #stream.parameter.named<"model"::"blk.22.ffn_down.weight"> : tensor<4096x14336xf16>
  util.global private @__auto.blk.23.attn_norm.weight = #stream.parameter.named<"model"::"blk.23.attn_norm.weight"> : tensor<4096xf32>
  util.global private @__auto.blk.23.attn_q.weight = #stream.parameter.named<"model"::"blk.23.attn_q.weight"> : tensor<4096x4096xf16>
  util.global private @__auto.blk.23.attn_k.weight = #stream.parameter.named<"model"::"blk.23.attn_k.weight"> : tensor<1024x4096xf16>
  util.global private @__auto.blk.23.attn_v.weight = #stream.parameter.named<"model"::"blk.23.attn_v.weight"> : tensor<1024x4096xf16>
  util.global private @__auto.blk.23.attn_output.weight = #stream.parameter.named<"model"::"blk.23.attn_output.weight"> : tensor<4096x4096xf16>
  util.global private @__auto.blk.23.ffn_norm.weight = #stream.parameter.named<"model"::"blk.23.ffn_norm.weight"> : tensor<4096xf32>
  util.global private @__auto.blk.23.ffn_gate.weight = #stream.parameter.named<"model"::"blk.23.ffn_gate.weight"> : tensor<14336x4096xf16>
  util.global private @__auto.blk.23.ffn_up.weight = #stream.parameter.named<"model"::"blk.23.ffn_up.weight"> : tensor<14336x4096xf16>
  util.global private @__auto.blk.23.ffn_down.weight = #stream.parameter.named<"model"::"blk.23.ffn_down.weight"> : tensor<4096x14336xf16>
  util.global private @__auto.blk.24.attn_norm.weight = #stream.parameter.named<"model"::"blk.24.attn_norm.weight"> : tensor<4096xf32>
  util.global private @__auto.blk.24.attn_q.weight = #stream.parameter.named<"model"::"blk.24.attn_q.weight"> : tensor<4096x4096xf16>
  util.global private @__auto.blk.24.attn_k.weight = #stream.parameter.named<"model"::"blk.24.attn_k.weight"> : tensor<1024x4096xf16>
  util.global private @__auto.blk.24.attn_v.weight = #stream.parameter.named<"model"::"blk.24.attn_v.weight"> : tensor<1024x4096xf16>
  util.global private @__auto.blk.24.attn_output.weight = #stream.parameter.named<"model"::"blk.24.attn_output.weight"> : tensor<4096x4096xf16>
  util.global private @__auto.blk.24.ffn_norm.weight = #stream.parameter.named<"model"::"blk.24.ffn_norm.weight"> : tensor<4096xf32>
  util.global private @__auto.blk.24.ffn_gate.weight = #stream.parameter.named<"model"::"blk.24.ffn_gate.weight"> : tensor<14336x4096xf16>
  util.global private @__auto.blk.24.ffn_up.weight = #stream.parameter.named<"model"::"blk.24.ffn_up.weight"> : tensor<14336x4096xf16>
  util.global private @__auto.blk.24.ffn_down.weight = #stream.parameter.named<"model"::"blk.24.ffn_down.weight"> : tensor<4096x14336xf16>
  util.global private @__auto.blk.25.attn_norm.weight = #stream.parameter.named<"model"::"blk.25.attn_norm.weight"> : tensor<4096xf32>
  util.global private @__auto.blk.25.attn_q.weight = #stream.parameter.named<"model"::"blk.25.attn_q.weight"> : tensor<4096x4096xf16>
  util.global private @__auto.blk.25.attn_k.weight = #stream.parameter.named<"model"::"blk.25.attn_k.weight"> : tensor<1024x4096xf16>
  util.global private @__auto.blk.25.attn_v.weight = #stream.parameter.named<"model"::"blk.25.attn_v.weight"> : tensor<1024x4096xf16>
  util.global private @__auto.blk.25.attn_output.weight = #stream.parameter.named<"model"::"blk.25.attn_output.weight"> : tensor<4096x4096xf16>
  util.global private @__auto.blk.25.ffn_norm.weight = #stream.parameter.named<"model"::"blk.25.ffn_norm.weight"> : tensor<4096xf32>
  util.global private @__auto.blk.25.ffn_gate.weight = #stream.parameter.named<"model"::"blk.25.ffn_gate.weight"> : tensor<14336x4096xf16>
  util.global private @__auto.blk.25.ffn_up.weight = #stream.parameter.named<"model"::"blk.25.ffn_up.weight"> : tensor<14336x4096xf16>
  util.global private @__auto.blk.25.ffn_down.weight = #stream.parameter.named<"model"::"blk.25.ffn_down.weight"> : tensor<4096x14336xf16>
  util.global private @__auto.blk.26.attn_norm.weight = #stream.parameter.named<"model"::"blk.26.attn_norm.weight"> : tensor<4096xf32>
  util.global private @__auto.blk.26.attn_q.weight = #stream.parameter.named<"model"::"blk.26.attn_q.weight"> : tensor<4096x4096xf16>
  util.global private @__auto.blk.26.attn_k.weight = #stream.parameter.named<"model"::"blk.26.attn_k.weight"> : tensor<1024x4096xf16>
  util.global private @__auto.blk.26.attn_v.weight = #stream.parameter.named<"model"::"blk.26.attn_v.weight"> : tensor<1024x4096xf16>
  util.global private @__auto.blk.26.attn_output.weight = #stream.parameter.named<"model"::"blk.26.attn_output.weight"> : tensor<4096x4096xf16>
  util.global private @__auto.blk.26.ffn_norm.weight = #stream.parameter.named<"model"::"blk.26.ffn_norm.weight"> : tensor<4096xf32>
  util.global private @__auto.blk.26.ffn_gate.weight = #stream.parameter.named<"model"::"blk.26.ffn_gate.weight"> : tensor<14336x4096xf16>
  util.global private @__auto.blk.26.ffn_up.weight = #stream.parameter.named<"model"::"blk.26.ffn_up.weight"> : tensor<14336x4096xf16>
  util.global private @__auto.blk.26.ffn_down.weight = #stream.parameter.named<"model"::"blk.26.ffn_down.weight"> : tensor<4096x14336xf16>
  util.global private @__auto.blk.27.attn_norm.weight = #stream.parameter.named<"model"::"blk.27.attn_norm.weight"> : tensor<4096xf32>
  util.global private @__auto.blk.27.attn_q.weight = #stream.parameter.named<"model"::"blk.27.attn_q.weight"> : tensor<4096x4096xf16>
  util.global private @__auto.blk.27.attn_k.weight = #stream.parameter.named<"model"::"blk.27.attn_k.weight"> : tensor<1024x4096xf16>
  util.global private @__auto.blk.27.attn_v.weight = #stream.parameter.named<"model"::"blk.27.attn_v.weight"> : tensor<1024x4096xf16>
  util.global private @__auto.blk.27.attn_output.weight = #stream.parameter.named<"model"::"blk.27.attn_output.weight"> : tensor<4096x4096xf16>
  util.global private @__auto.blk.27.ffn_norm.weight = #stream.parameter.named<"model"::"blk.27.ffn_norm.weight"> : tensor<4096xf32>
  util.global private @__auto.blk.27.ffn_gate.weight = #stream.parameter.named<"model"::"blk.27.ffn_gate.weight"> : tensor<14336x4096xf16>
  util.global private @__auto.blk.27.ffn_up.weight = #stream.parameter.named<"model"::"blk.27.ffn_up.weight"> : tensor<14336x4096xf16>
  util.global private @__auto.blk.27.ffn_down.weight = #stream.parameter.named<"model"::"blk.27.ffn_down.weight"> : tensor<4096x14336xf16>
  util.global private @__auto.blk.28.attn_norm.weight = #stream.parameter.named<"model"::"blk.28.attn_norm.weight"> : tensor<4096xf32>
  util.global private @__auto.blk.28.attn_q.weight = #stream.parameter.named<"model"::"blk.28.attn_q.weight"> : tensor<4096x4096xf16>
  util.global private @__auto.blk.28.attn_k.weight = #stream.parameter.named<"model"::"blk.28.attn_k.weight"> : tensor<1024x4096xf16>
  util.global private @__auto.blk.28.attn_v.weight = #stream.parameter.named<"model"::"blk.28.attn_v.weight"> : tensor<1024x4096xf16>
  util.global private @__auto.blk.28.attn_output.weight = #stream.parameter.named<"model"::"blk.28.attn_output.weight"> : tensor<4096x4096xf16>
  util.global private @__auto.blk.28.ffn_norm.weight = #stream.parameter.named<"model"::"blk.28.ffn_norm.weight"> : tensor<4096xf32>
  util.global private @__auto.blk.28.ffn_gate.weight = #stream.parameter.named<"model"::"blk.28.ffn_gate.weight"> : tensor<14336x4096xf16>
  util.global private @__auto.blk.28.ffn_up.weight = #stream.parameter.named<"model"::"blk.28.ffn_up.weight"> : tensor<14336x4096xf16>
  util.global private @__auto.blk.28.ffn_down.weight = #stream.parameter.named<"model"::"blk.28.ffn_down.weight"> : tensor<4096x14336xf16>
  util.global private @__auto.blk.29.attn_norm.weight = #stream.parameter.named<"model"::"blk.29.attn_norm.weight"> : tensor<4096xf32>
  util.global private @__auto.blk.29.attn_q.weight = #stream.parameter.named<"model"::"blk.29.attn_q.weight"> : tensor<4096x4096xf16>
  util.global private @__auto.blk.29.attn_k.weight = #stream.parameter.named<"model"::"blk.29.attn_k.weight"> : tensor<1024x4096xf16>
  util.global private @__auto.blk.29.attn_v.weight = #stream.parameter.named<"model"::"blk.29.attn_v.weight"> : tensor<1024x4096xf16>
  util.global private @__auto.blk.29.attn_output.weight = #stream.parameter.named<"model"::"blk.29.attn_output.weight"> : tensor<4096x4096xf16>
  util.global private @__auto.blk.29.ffn_norm.weight = #stream.parameter.named<"model"::"blk.29.ffn_norm.weight"> : tensor<4096xf32>
  util.global private @__auto.blk.29.ffn_gate.weight = #stream.parameter.named<"model"::"blk.29.ffn_gate.weight"> : tensor<14336x4096xf16>
  util.global private @__auto.blk.29.ffn_up.weight = #stream.parameter.named<"model"::"blk.29.ffn_up.weight"> : tensor<14336x4096xf16>
  util.global private @__auto.blk.29.ffn_down.weight = #stream.parameter.named<"model"::"blk.29.ffn_down.weight"> : tensor<4096x14336xf16>
  util.global private @__auto.blk.30.attn_norm.weight = #stream.parameter.named<"model"::"blk.30.attn_norm.weight"> : tensor<4096xf32>
  util.global private @__auto.blk.30.attn_q.weight = #stream.parameter.named<"model"::"blk.30.attn_q.weight"> : tensor<4096x4096xf16>
  util.global private @__auto.blk.30.attn_k.weight = #stream.parameter.named<"model"::"blk.30.attn_k.weight"> : tensor<1024x4096xf16>
  util.global private @__auto.blk.30.attn_v.weight = #stream.parameter.named<"model"::"blk.30.attn_v.weight"> : tensor<1024x4096xf16>
  util.global private @__auto.blk.30.attn_output.weight = #stream.parameter.named<"model"::"blk.30.attn_output.weight"> : tensor<4096x4096xf16>
  util.global private @__auto.blk.30.ffn_norm.weight = #stream.parameter.named<"model"::"blk.30.ffn_norm.weight"> : tensor<4096xf32>
  util.global private @__auto.blk.30.ffn_gate.weight = #stream.parameter.named<"model"::"blk.30.ffn_gate.weight"> : tensor<14336x4096xf16>
  util.global private @__auto.blk.30.ffn_up.weight = #stream.parameter.named<"model"::"blk.30.ffn_up.weight"> : tensor<14336x4096xf16>
  util.global private @__auto.blk.30.ffn_down.weight = #stream.parameter.named<"model"::"blk.30.ffn_down.weight"> : tensor<4096x14336xf16>
  util.global private @__auto.blk.31.attn_norm.weight = #stream.parameter.named<"model"::"blk.31.attn_norm.weight"> : tensor<4096xf32>
  util.global private @__auto.blk.31.attn_q.weight = #stream.parameter.named<"model"::"blk.31.attn_q.weight"> : tensor<4096x4096xf16>
  util.global private @__auto.blk.31.attn_k.weight = #stream.parameter.named<"model"::"blk.31.attn_k.weight"> : tensor<1024x4096xf16>
  util.global private @__auto.blk.31.attn_v.weight = #stream.parameter.named<"model"::"blk.31.attn_v.weight"> : tensor<1024x4096xf16>
  util.global private @__auto.blk.31.attn_output.weight = #stream.parameter.named<"model"::"blk.31.attn_output.weight"> : tensor<4096x4096xf16>
  util.global private @__auto.blk.31.ffn_norm.weight = #stream.parameter.named<"model"::"blk.31.ffn_norm.weight"> : tensor<4096xf32>
  util.global private @__auto.blk.31.ffn_gate.weight = #stream.parameter.named<"model"::"blk.31.ffn_gate.weight"> : tensor<14336x4096xf16>
  util.global private @__auto.blk.31.ffn_up.weight = #stream.parameter.named<"model"::"blk.31.ffn_up.weight"> : tensor<14336x4096xf16>
  util.global private @__auto.blk.31.ffn_down.weight = #stream.parameter.named<"model"::"blk.31.ffn_down.weight"> : tensor<4096x14336xf16>
  util.global private @__auto.output_norm.weight = #stream.parameter.named<"model"::"output_norm.weight"> : tensor<4096xf32>
  util.global private @__auto.output.weight = #stream.parameter.named<"model"::"output.weight"> : tensor<128256x4096xf16>
  util.global private @__auto.constant_1_1_8192_8192_torch.uint8 = dense_resource<__auto.constant_1_1_8192_8192_torch.uint8> : tensor<1x1x8192x8192xi8>
  util.func public @prefill_bs4$async(%arg0: !hal.buffer_view, %arg1: !hal.buffer_view, %arg2: !hal.buffer_view, %arg3: !hal.buffer_view, %arg4: !hal.fence, %arg5: !hal.fence) -> !hal.buffer_view attributes {inlining_policy = #util.inline.never, iree.abi.model = "coarse-fences", iree.abi.stub} {
    %c1_i64 = arith.constant 1 : i64
    %c0_i64 = arith.constant 0 : i64
    %cst = arith.constant dense<0xFF800000> : tensor<f32>
    %cst_0 = arith.constant dense<0> : tensor<i64>
    %c62_i64 = arith.constant 62 : i64
    %c60_i64 = arith.constant 60 : i64
    %c58_i64 = arith.constant 58 : i64
    %c56_i64 = arith.constant 56 : i64
    %c54_i64 = arith.constant 54 : i64
    %c52_i64 = arith.constant 52 : i64
    %c50_i64 = arith.constant 50 : i64
    %c48_i64 = arith.constant 48 : i64
    %c46_i64 = arith.constant 46 : i64
    %c44_i64 = arith.constant 44 : i64
    %c42_i64 = arith.constant 42 : i64
    %c40_i64 = arith.constant 40 : i64
    %c38_i64 = arith.constant 38 : i64
    %c36_i64 = arith.constant 36 : i64
    %c34_i64 = arith.constant 34 : i64
    %c30_i64 = arith.constant 30 : i64
    %c28_i64 = arith.constant 28 : i64
    %c26_i64 = arith.constant 26 : i64
    %c24_i64 = arith.constant 24 : i64
    %c22_i64 = arith.constant 22 : i64
    %c20_i64 = arith.constant 20 : i64
    %c18_i64 = arith.constant 18 : i64
    %c14_i64 = arith.constant 14 : i64
    %c12_i64 = arith.constant 12 : i64
    %c10_i64 = arith.constant 10 : i64
    %c64_i64 = arith.constant 64 : i64
    %c16_i64 = arith.constant 16 : i64
    %c8_i64 = arith.constant 8 : i64
    %c128_i64 = arith.constant 128 : i64
    %c32_i64 = arith.constant 32 : i64
    %c4_i64 = arith.constant 4 : i64
    %c6_i64 = arith.constant 6 : i64
    %c2_i64 = arith.constant 2 : i64
    %c0 = arith.constant 0 : index
    %c0_i8 = arith.constant 0 : i8
    %c1 = arith.constant 1 : index
    %c-1 = arith.constant -1 : index
    %c8192 = arith.constant 8192 : index
    %c128256 = arith.constant 128256 : index
    %cst_1 = arith.constant 0.000000e+00 : f32
    %c4 = arith.constant 4 : index
    %c64 = arith.constant 64 : index
    %c16 = arith.constant 16 : index
    %cst_2 = arith.constant 0.000000e+00 : f16
    %cst_3 = arith.constant 0xFF800000 : f32
    %cst_4 = arith.constant 1.000000e+00 : f16
    %cst_5 = arith.constant 11.3137083 : f32
    %cst_6 = arith.constant 2.000000e+00 : f32
    %cst_7 = arith.constant 4.096000e+03 : f32
    %cst_8 = arith.constant 9.99999974E-6 : f32
    %c16384_i64 = arith.constant 16384 : i64
    %c4096_i64 = arith.constant 4096 : i64
    %c256_i64 = arith.constant 256 : i64
    %0 = hal.buffer_view.dim<%arg0 : !hal.buffer_view>[1] : index
    %1 = hal.tensor.import wait(%arg4) => %arg0 : !hal.buffer_view -> tensor<4x?xi64>{%0}
    %2 = hal.tensor.import wait(%arg4) => %arg1 : !hal.buffer_view -> tensor<4xi64>
    %3 = hal.buffer_view.dim<%arg2 : !hal.buffer_view>[1] : index
    %4 = hal.tensor.import wait(%arg4) => %arg2 : !hal.buffer_view -> tensor<4x?xi64>{%3}
    %__auto.token_embd.weight = util.global.load @__auto.token_embd.weight : tensor<128256x4096xf16>
    %__auto.blk.0.attn_norm.weight = util.global.load @__auto.blk.0.attn_norm.weight : tensor<4096xf32>
    %__auto.blk.0.attn_q.weight = util.global.load @__auto.blk.0.attn_q.weight : tensor<4096x4096xf16>
    %__auto.blk.0.attn_k.weight = util.global.load @__auto.blk.0.attn_k.weight : tensor<1024x4096xf16>
    %__auto.blk.0.attn_v.weight = util.global.load @__auto.blk.0.attn_v.weight : tensor<1024x4096xf16>
    %__auto.constant_8192_64_torch.complex64 = util.global.load @__auto.constant_8192_64_torch.complex64 : tensor<8192x64xcomplex<f32>>
    %__auto.blk.0.attn_output.weight = util.global.load @__auto.blk.0.attn_output.weight : tensor<4096x4096xf16>
    %__auto.blk.0.ffn_norm.weight = util.global.load @__auto.blk.0.ffn_norm.weight : tensor<4096xf32>
    %__auto.blk.0.ffn_gate.weight = util.global.load @__auto.blk.0.ffn_gate.weight : tensor<14336x4096xf16>
    %__auto.blk.0.ffn_up.weight = util.global.load @__auto.blk.0.ffn_up.weight : tensor<14336x4096xf16>
    %__auto.blk.0.ffn_down.weight = util.global.load @__auto.blk.0.ffn_down.weight : tensor<4096x14336xf16>
    %__auto.blk.1.attn_norm.weight = util.global.load @__auto.blk.1.attn_norm.weight : tensor<4096xf32>
    %__auto.blk.1.attn_q.weight = util.global.load @__auto.blk.1.attn_q.weight : tensor<4096x4096xf16>
    %__auto.blk.1.attn_k.weight = util.global.load @__auto.blk.1.attn_k.weight : tensor<1024x4096xf16>
    %__auto.blk.1.attn_v.weight = util.global.load @__auto.blk.1.attn_v.weight : tensor<1024x4096xf16>
    %__auto.blk.1.attn_output.weight = util.global.load @__auto.blk.1.attn_output.weight : tensor<4096x4096xf16>
    %__auto.blk.1.ffn_norm.weight = util.global.load @__auto.blk.1.ffn_norm.weight : tensor<4096xf32>
    %__auto.blk.1.ffn_gate.weight = util.global.load @__auto.blk.1.ffn_gate.weight : tensor<14336x4096xf16>
    %__auto.blk.1.ffn_up.weight = util.global.load @__auto.blk.1.ffn_up.weight : tensor<14336x4096xf16>
    %__auto.blk.1.ffn_down.weight = util.global.load @__auto.blk.1.ffn_down.weight : tensor<4096x14336xf16>
    %__auto.blk.2.attn_norm.weight = util.global.load @__auto.blk.2.attn_norm.weight : tensor<4096xf32>
    %__auto.blk.2.attn_q.weight = util.global.load @__auto.blk.2.attn_q.weight : tensor<4096x4096xf16>
    %__auto.blk.2.attn_k.weight = util.global.load @__auto.blk.2.attn_k.weight : tensor<1024x4096xf16>
    %__auto.blk.2.attn_v.weight = util.global.load @__auto.blk.2.attn_v.weight : tensor<1024x4096xf16>
    %__auto.blk.2.attn_output.weight = util.global.load @__auto.blk.2.attn_output.weight : tensor<4096x4096xf16>
    %__auto.blk.2.ffn_norm.weight = util.global.load @__auto.blk.2.ffn_norm.weight : tensor<4096xf32>
    %__auto.blk.2.ffn_gate.weight = util.global.load @__auto.blk.2.ffn_gate.weight : tensor<14336x4096xf16>
    %__auto.blk.2.ffn_up.weight = util.global.load @__auto.blk.2.ffn_up.weight : tensor<14336x4096xf16>
    %__auto.blk.2.ffn_down.weight = util.global.load @__auto.blk.2.ffn_down.weight : tensor<4096x14336xf16>
    %__auto.blk.3.attn_norm.weight = util.global.load @__auto.blk.3.attn_norm.weight : tensor<4096xf32>
    %__auto.blk.3.attn_q.weight = util.global.load @__auto.blk.3.attn_q.weight : tensor<4096x4096xf16>
    %__auto.blk.3.attn_k.weight = util.global.load @__auto.blk.3.attn_k.weight : tensor<1024x4096xf16>
    %__auto.blk.3.attn_v.weight = util.global.load @__auto.blk.3.attn_v.weight : tensor<1024x4096xf16>
    %__auto.blk.3.attn_output.weight = util.global.load @__auto.blk.3.attn_output.weight : tensor<4096x4096xf16>
    %__auto.blk.3.ffn_norm.weight = util.global.load @__auto.blk.3.ffn_norm.weight : tensor<4096xf32>
    %__auto.blk.3.ffn_gate.weight = util.global.load @__auto.blk.3.ffn_gate.weight : tensor<14336x4096xf16>
    %__auto.blk.3.ffn_up.weight = util.global.load @__auto.blk.3.ffn_up.weight : tensor<14336x4096xf16>
    %__auto.blk.3.ffn_down.weight = util.global.load @__auto.blk.3.ffn_down.weight : tensor<4096x14336xf16>
    %__auto.blk.4.attn_norm.weight = util.global.load @__auto.blk.4.attn_norm.weight : tensor<4096xf32>
    %__auto.blk.4.attn_q.weight = util.global.load @__auto.blk.4.attn_q.weight : tensor<4096x4096xf16>
    %__auto.blk.4.attn_k.weight = util.global.load @__auto.blk.4.attn_k.weight : tensor<1024x4096xf16>
    %__auto.blk.4.attn_v.weight = util.global.load @__auto.blk.4.attn_v.weight : tensor<1024x4096xf16>
    %__auto.blk.4.attn_output.weight = util.global.load @__auto.blk.4.attn_output.weight : tensor<4096x4096xf16>
    %__auto.blk.4.ffn_norm.weight = util.global.load @__auto.blk.4.ffn_norm.weight : tensor<4096xf32>
    %__auto.blk.4.ffn_gate.weight = util.global.load @__auto.blk.4.ffn_gate.weight : tensor<14336x4096xf16>
    %__auto.blk.4.ffn_up.weight = util.global.load @__auto.blk.4.ffn_up.weight : tensor<14336x4096xf16>
    %__auto.blk.4.ffn_down.weight = util.global.load @__auto.blk.4.ffn_down.weight : tensor<4096x14336xf16>
    %__auto.blk.5.attn_norm.weight = util.global.load @__auto.blk.5.attn_norm.weight : tensor<4096xf32>
    %__auto.blk.5.attn_q.weight = util.global.load @__auto.blk.5.attn_q.weight : tensor<4096x4096xf16>
    %__auto.blk.5.attn_k.weight = util.global.load @__auto.blk.5.attn_k.weight : tensor<1024x4096xf16>
    %__auto.blk.5.attn_v.weight = util.global.load @__auto.blk.5.attn_v.weight : tensor<1024x4096xf16>
    %__auto.blk.5.attn_output.weight = util.global.load @__auto.blk.5.attn_output.weight : tensor<4096x4096xf16>
    %__auto.blk.5.ffn_norm.weight = util.global.load @__auto.blk.5.ffn_norm.weight : tensor<4096xf32>
    %__auto.blk.5.ffn_gate.weight = util.global.load @__auto.blk.5.ffn_gate.weight : tensor<14336x4096xf16>
    %__auto.blk.5.ffn_up.weight = util.global.load @__auto.blk.5.ffn_up.weight : tensor<14336x4096xf16>
    %__auto.blk.5.ffn_down.weight = util.global.load @__auto.blk.5.ffn_down.weight : tensor<4096x14336xf16>
    %__auto.blk.6.attn_norm.weight = util.global.load @__auto.blk.6.attn_norm.weight : tensor<4096xf32>
    %__auto.blk.6.attn_q.weight = util.global.load @__auto.blk.6.attn_q.weight : tensor<4096x4096xf16>
    %__auto.blk.6.attn_k.weight = util.global.load @__auto.blk.6.attn_k.weight : tensor<1024x4096xf16>
    %__auto.blk.6.attn_v.weight = util.global.load @__auto.blk.6.attn_v.weight : tensor<1024x4096xf16>
    %__auto.blk.6.attn_output.weight = util.global.load @__auto.blk.6.attn_output.weight : tensor<4096x4096xf16>
    %__auto.blk.6.ffn_norm.weight = util.global.load @__auto.blk.6.ffn_norm.weight : tensor<4096xf32>
    %__auto.blk.6.ffn_gate.weight = util.global.load @__auto.blk.6.ffn_gate.weight : tensor<14336x4096xf16>
    %__auto.blk.6.ffn_up.weight = util.global.load @__auto.blk.6.ffn_up.weight : tensor<14336x4096xf16>
    %__auto.blk.6.ffn_down.weight = util.global.load @__auto.blk.6.ffn_down.weight : tensor<4096x14336xf16>
    %__auto.blk.7.attn_norm.weight = util.global.load @__auto.blk.7.attn_norm.weight : tensor<4096xf32>
    %__auto.blk.7.attn_q.weight = util.global.load @__auto.blk.7.attn_q.weight : tensor<4096x4096xf16>
    %__auto.blk.7.attn_k.weight = util.global.load @__auto.blk.7.attn_k.weight : tensor<1024x4096xf16>
    %__auto.blk.7.attn_v.weight = util.global.load @__auto.blk.7.attn_v.weight : tensor<1024x4096xf16>
    %__auto.blk.7.attn_output.weight = util.global.load @__auto.blk.7.attn_output.weight : tensor<4096x4096xf16>
    %__auto.blk.7.ffn_norm.weight = util.global.load @__auto.blk.7.ffn_norm.weight : tensor<4096xf32>
    %__auto.blk.7.ffn_gate.weight = util.global.load @__auto.blk.7.ffn_gate.weight : tensor<14336x4096xf16>
    %__auto.blk.7.ffn_up.weight = util.global.load @__auto.blk.7.ffn_up.weight : tensor<14336x4096xf16>
    %__auto.blk.7.ffn_down.weight = util.global.load @__auto.blk.7.ffn_down.weight : tensor<4096x14336xf16>
    %__auto.blk.8.attn_norm.weight = util.global.load @__auto.blk.8.attn_norm.weight : tensor<4096xf32>
    %__auto.blk.8.attn_q.weight = util.global.load @__auto.blk.8.attn_q.weight : tensor<4096x4096xf16>
    %__auto.blk.8.attn_k.weight = util.global.load @__auto.blk.8.attn_k.weight : tensor<1024x4096xf16>
    %__auto.blk.8.attn_v.weight = util.global.load @__auto.blk.8.attn_v.weight : tensor<1024x4096xf16>
    %__auto.blk.8.attn_output.weight = util.global.load @__auto.blk.8.attn_output.weight : tensor<4096x4096xf16>
    %__auto.blk.8.ffn_norm.weight = util.global.load @__auto.blk.8.ffn_norm.weight : tensor<4096xf32>
    %__auto.blk.8.ffn_gate.weight = util.global.load @__auto.blk.8.ffn_gate.weight : tensor<14336x4096xf16>
    %__auto.blk.8.ffn_up.weight = util.global.load @__auto.blk.8.ffn_up.weight : tensor<14336x4096xf16>
    %__auto.blk.8.ffn_down.weight = util.global.load @__auto.blk.8.ffn_down.weight : tensor<4096x14336xf16>
    %__auto.blk.9.attn_norm.weight = util.global.load @__auto.blk.9.attn_norm.weight : tensor<4096xf32>
    %__auto.blk.9.attn_q.weight = util.global.load @__auto.blk.9.attn_q.weight : tensor<4096x4096xf16>
    %__auto.blk.9.attn_k.weight = util.global.load @__auto.blk.9.attn_k.weight : tensor<1024x4096xf16>
    %__auto.blk.9.attn_v.weight = util.global.load @__auto.blk.9.attn_v.weight : tensor<1024x4096xf16>
    %__auto.blk.9.attn_output.weight = util.global.load @__auto.blk.9.attn_output.weight : tensor<4096x4096xf16>
    %__auto.blk.9.ffn_norm.weight = util.global.load @__auto.blk.9.ffn_norm.weight : tensor<4096xf32>
    %__auto.blk.9.ffn_gate.weight = util.global.load @__auto.blk.9.ffn_gate.weight : tensor<14336x4096xf16>
    %__auto.blk.9.ffn_up.weight = util.global.load @__auto.blk.9.ffn_up.weight : tensor<14336x4096xf16>
    %__auto.blk.9.ffn_down.weight = util.global.load @__auto.blk.9.ffn_down.weight : tensor<4096x14336xf16>
    %__auto.blk.10.attn_norm.weight = util.global.load @__auto.blk.10.attn_norm.weight : tensor<4096xf32>
    %__auto.blk.10.attn_q.weight = util.global.load @__auto.blk.10.attn_q.weight : tensor<4096x4096xf16>
    %__auto.blk.10.attn_k.weight = util.global.load @__auto.blk.10.attn_k.weight : tensor<1024x4096xf16>
    %__auto.blk.10.attn_v.weight = util.global.load @__auto.blk.10.attn_v.weight : tensor<1024x4096xf16>
    %__auto.blk.10.attn_output.weight = util.global.load @__auto.blk.10.attn_output.weight : tensor<4096x4096xf16>
    %__auto.blk.10.ffn_norm.weight = util.global.load @__auto.blk.10.ffn_norm.weight : tensor<4096xf32>
    %__auto.blk.10.ffn_gate.weight = util.global.load @__auto.blk.10.ffn_gate.weight : tensor<14336x4096xf16>
    %__auto.blk.10.ffn_up.weight = util.global.load @__auto.blk.10.ffn_up.weight : tensor<14336x4096xf16>
    %__auto.blk.10.ffn_down.weight = util.global.load @__auto.blk.10.ffn_down.weight : tensor<4096x14336xf16>
    %__auto.blk.11.attn_norm.weight = util.global.load @__auto.blk.11.attn_norm.weight : tensor<4096xf32>
    %__auto.blk.11.attn_q.weight = util.global.load @__auto.blk.11.attn_q.weight : tensor<4096x4096xf16>
    %__auto.blk.11.attn_k.weight = util.global.load @__auto.blk.11.attn_k.weight : tensor<1024x4096xf16>
    %__auto.blk.11.attn_v.weight = util.global.load @__auto.blk.11.attn_v.weight : tensor<1024x4096xf16>
    %__auto.blk.11.attn_output.weight = util.global.load @__auto.blk.11.attn_output.weight : tensor<4096x4096xf16>
    %__auto.blk.11.ffn_norm.weight = util.global.load @__auto.blk.11.ffn_norm.weight : tensor<4096xf32>
    %__auto.blk.11.ffn_gate.weight = util.global.load @__auto.blk.11.ffn_gate.weight : tensor<14336x4096xf16>
    %__auto.blk.11.ffn_up.weight = util.global.load @__auto.blk.11.ffn_up.weight : tensor<14336x4096xf16>
    %__auto.blk.11.ffn_down.weight = util.global.load @__auto.blk.11.ffn_down.weight : tensor<4096x14336xf16>
    %__auto.blk.12.attn_norm.weight = util.global.load @__auto.blk.12.attn_norm.weight : tensor<4096xf32>
    %__auto.blk.12.attn_q.weight = util.global.load @__auto.blk.12.attn_q.weight : tensor<4096x4096xf16>
    %__auto.blk.12.attn_k.weight = util.global.load @__auto.blk.12.attn_k.weight : tensor<1024x4096xf16>
    %__auto.blk.12.attn_v.weight = util.global.load @__auto.blk.12.attn_v.weight : tensor<1024x4096xf16>
    %__auto.blk.12.attn_output.weight = util.global.load @__auto.blk.12.attn_output.weight : tensor<4096x4096xf16>
    %__auto.blk.12.ffn_norm.weight = util.global.load @__auto.blk.12.ffn_norm.weight : tensor<4096xf32>
    %__auto.blk.12.ffn_gate.weight = util.global.load @__auto.blk.12.ffn_gate.weight : tensor<14336x4096xf16>
    %__auto.blk.12.ffn_up.weight = util.global.load @__auto.blk.12.ffn_up.weight : tensor<14336x4096xf16>
    %__auto.blk.12.ffn_down.weight = util.global.load @__auto.blk.12.ffn_down.weight : tensor<4096x14336xf16>
    %__auto.blk.13.attn_norm.weight = util.global.load @__auto.blk.13.attn_norm.weight : tensor<4096xf32>
    %__auto.blk.13.attn_q.weight = util.global.load @__auto.blk.13.attn_q.weight : tensor<4096x4096xf16>
    %__auto.blk.13.attn_k.weight = util.global.load @__auto.blk.13.attn_k.weight : tensor<1024x4096xf16>
    %__auto.blk.13.attn_v.weight = util.global.load @__auto.blk.13.attn_v.weight : tensor<1024x4096xf16>
    %__auto.blk.13.attn_output.weight = util.global.load @__auto.blk.13.attn_output.weight : tensor<4096x4096xf16>
    %__auto.blk.13.ffn_norm.weight = util.global.load @__auto.blk.13.ffn_norm.weight : tensor<4096xf32>
    %__auto.blk.13.ffn_gate.weight = util.global.load @__auto.blk.13.ffn_gate.weight : tensor<14336x4096xf16>
    %__auto.blk.13.ffn_up.weight = util.global.load @__auto.blk.13.ffn_up.weight : tensor<14336x4096xf16>
    %__auto.blk.13.ffn_down.weight = util.global.load @__auto.blk.13.ffn_down.weight : tensor<4096x14336xf16>
    %__auto.blk.14.attn_norm.weight = util.global.load @__auto.blk.14.attn_norm.weight : tensor<4096xf32>
    %__auto.blk.14.attn_q.weight = util.global.load @__auto.blk.14.attn_q.weight : tensor<4096x4096xf16>
    %__auto.blk.14.attn_k.weight = util.global.load @__auto.blk.14.attn_k.weight : tensor<1024x4096xf16>
    %__auto.blk.14.attn_v.weight = util.global.load @__auto.blk.14.attn_v.weight : tensor<1024x4096xf16>
    %__auto.blk.14.attn_output.weight = util.global.load @__auto.blk.14.attn_output.weight : tensor<4096x4096xf16>
    %__auto.blk.14.ffn_norm.weight = util.global.load @__auto.blk.14.ffn_norm.weight : tensor<4096xf32>
    %__auto.blk.14.ffn_gate.weight = util.global.load @__auto.blk.14.ffn_gate.weight : tensor<14336x4096xf16>
    %__auto.blk.14.ffn_up.weight = util.global.load @__auto.blk.14.ffn_up.weight : tensor<14336x4096xf16>
    %__auto.blk.14.ffn_down.weight = util.global.load @__auto.blk.14.ffn_down.weight : tensor<4096x14336xf16>
    %__auto.blk.15.attn_norm.weight = util.global.load @__auto.blk.15.attn_norm.weight : tensor<4096xf32>
    %__auto.blk.15.attn_q.weight = util.global.load @__auto.blk.15.attn_q.weight : tensor<4096x4096xf16>
    %__auto.blk.15.attn_k.weight = util.global.load @__auto.blk.15.attn_k.weight : tensor<1024x4096xf16>
    %__auto.blk.15.attn_v.weight = util.global.load @__auto.blk.15.attn_v.weight : tensor<1024x4096xf16>
    %__auto.blk.15.attn_output.weight = util.global.load @__auto.blk.15.attn_output.weight : tensor<4096x4096xf16>
    %__auto.blk.15.ffn_norm.weight = util.global.load @__auto.blk.15.ffn_norm.weight : tensor<4096xf32>
    %__auto.blk.15.ffn_gate.weight = util.global.load @__auto.blk.15.ffn_gate.weight : tensor<14336x4096xf16>
    %__auto.blk.15.ffn_up.weight = util.global.load @__auto.blk.15.ffn_up.weight : tensor<14336x4096xf16>
    %__auto.blk.15.ffn_down.weight = util.global.load @__auto.blk.15.ffn_down.weight : tensor<4096x14336xf16>
    %__auto.blk.16.attn_norm.weight = util.global.load @__auto.blk.16.attn_norm.weight : tensor<4096xf32>
    %__auto.blk.16.attn_q.weight = util.global.load @__auto.blk.16.attn_q.weight : tensor<4096x4096xf16>
    %__auto.blk.16.attn_k.weight = util.global.load @__auto.blk.16.attn_k.weight : tensor<1024x4096xf16>
    %__auto.blk.16.attn_v.weight = util.global.load @__auto.blk.16.attn_v.weight : tensor<1024x4096xf16>
    %__auto.blk.16.attn_output.weight = util.global.load @__auto.blk.16.attn_output.weight : tensor<4096x4096xf16>
    %__auto.blk.16.ffn_norm.weight = util.global.load @__auto.blk.16.ffn_norm.weight : tensor<4096xf32>
    %__auto.blk.16.ffn_gate.weight = util.global.load @__auto.blk.16.ffn_gate.weight : tensor<14336x4096xf16>
    %__auto.blk.16.ffn_up.weight = util.global.load @__auto.blk.16.ffn_up.weight : tensor<14336x4096xf16>
    %__auto.blk.16.ffn_down.weight = util.global.load @__auto.blk.16.ffn_down.weight : tensor<4096x14336xf16>
    %__auto.blk.17.attn_norm.weight = util.global.load @__auto.blk.17.attn_norm.weight : tensor<4096xf32>
    %__auto.blk.17.attn_q.weight = util.global.load @__auto.blk.17.attn_q.weight : tensor<4096x4096xf16>
    %__auto.blk.17.attn_k.weight = util.global.load @__auto.blk.17.attn_k.weight : tensor<1024x4096xf16>
    %__auto.blk.17.attn_v.weight = util.global.load @__auto.blk.17.attn_v.weight : tensor<1024x4096xf16>
    %__auto.blk.17.attn_output.weight = util.global.load @__auto.blk.17.attn_output.weight : tensor<4096x4096xf16>
    %__auto.blk.17.ffn_norm.weight = util.global.load @__auto.blk.17.ffn_norm.weight : tensor<4096xf32>
    %__auto.blk.17.ffn_gate.weight = util.global.load @__auto.blk.17.ffn_gate.weight : tensor<14336x4096xf16>
    %__auto.blk.17.ffn_up.weight = util.global.load @__auto.blk.17.ffn_up.weight : tensor<14336x4096xf16>
    %__auto.blk.17.ffn_down.weight = util.global.load @__auto.blk.17.ffn_down.weight : tensor<4096x14336xf16>
    %__auto.blk.18.attn_norm.weight = util.global.load @__auto.blk.18.attn_norm.weight : tensor<4096xf32>
    %__auto.blk.18.attn_q.weight = util.global.load @__auto.blk.18.attn_q.weight : tensor<4096x4096xf16>
    %__auto.blk.18.attn_k.weight = util.global.load @__auto.blk.18.attn_k.weight : tensor<1024x4096xf16>
    %__auto.blk.18.attn_v.weight = util.global.load @__auto.blk.18.attn_v.weight : tensor<1024x4096xf16>
    %__auto.blk.18.attn_output.weight = util.global.load @__auto.blk.18.attn_output.weight : tensor<4096x4096xf16>
    %__auto.blk.18.ffn_norm.weight = util.global.load @__auto.blk.18.ffn_norm.weight : tensor<4096xf32>
    %__auto.blk.18.ffn_gate.weight = util.global.load @__auto.blk.18.ffn_gate.weight : tensor<14336x4096xf16>
    %__auto.blk.18.ffn_up.weight = util.global.load @__auto.blk.18.ffn_up.weight : tensor<14336x4096xf16>
    %__auto.blk.18.ffn_down.weight = util.global.load @__auto.blk.18.ffn_down.weight : tensor<4096x14336xf16>
    %__auto.blk.19.attn_norm.weight = util.global.load @__auto.blk.19.attn_norm.weight : tensor<4096xf32>
    %__auto.blk.19.attn_q.weight = util.global.load @__auto.blk.19.attn_q.weight : tensor<4096x4096xf16>
    %__auto.blk.19.attn_k.weight = util.global.load @__auto.blk.19.attn_k.weight : tensor<1024x4096xf16>
    %__auto.blk.19.attn_v.weight = util.global.load @__auto.blk.19.attn_v.weight : tensor<1024x4096xf16>
    %__auto.blk.19.attn_output.weight = util.global.load @__auto.blk.19.attn_output.weight : tensor<4096x4096xf16>
    %__auto.blk.19.ffn_norm.weight = util.global.load @__auto.blk.19.ffn_norm.weight : tensor<4096xf32>
    %__auto.blk.19.ffn_gate.weight = util.global.load @__auto.blk.19.ffn_gate.weight : tensor<14336x4096xf16>
    %__auto.blk.19.ffn_up.weight = util.global.load @__auto.blk.19.ffn_up.weight : tensor<14336x4096xf16>
    %__auto.blk.19.ffn_down.weight = util.global.load @__auto.blk.19.ffn_down.weight : tensor<4096x14336xf16>
    %__auto.blk.20.attn_norm.weight = util.global.load @__auto.blk.20.attn_norm.weight : tensor<4096xf32>
    %__auto.blk.20.attn_q.weight = util.global.load @__auto.blk.20.attn_q.weight : tensor<4096x4096xf16>
    %__auto.blk.20.attn_k.weight = util.global.load @__auto.blk.20.attn_k.weight : tensor<1024x4096xf16>
    %__auto.blk.20.attn_v.weight = util.global.load @__auto.blk.20.attn_v.weight : tensor<1024x4096xf16>
    %__auto.blk.20.attn_output.weight = util.global.load @__auto.blk.20.attn_output.weight : tensor<4096x4096xf16>
    %__auto.blk.20.ffn_norm.weight = util.global.load @__auto.blk.20.ffn_norm.weight : tensor<4096xf32>
    %__auto.blk.20.ffn_gate.weight = util.global.load @__auto.blk.20.ffn_gate.weight : tensor<14336x4096xf16>
    %__auto.blk.20.ffn_up.weight = util.global.load @__auto.blk.20.ffn_up.weight : tensor<14336x4096xf16>
    %__auto.blk.20.ffn_down.weight = util.global.load @__auto.blk.20.ffn_down.weight : tensor<4096x14336xf16>
    %__auto.blk.21.attn_norm.weight = util.global.load @__auto.blk.21.attn_norm.weight : tensor<4096xf32>
    %__auto.blk.21.attn_q.weight = util.global.load @__auto.blk.21.attn_q.weight : tensor<4096x4096xf16>
    %__auto.blk.21.attn_k.weight = util.global.load @__auto.blk.21.attn_k.weight : tensor<1024x4096xf16>
    %__auto.blk.21.attn_v.weight = util.global.load @__auto.blk.21.attn_v.weight : tensor<1024x4096xf16>
    %__auto.blk.21.attn_output.weight = util.global.load @__auto.blk.21.attn_output.weight : tensor<4096x4096xf16>
    %__auto.blk.21.ffn_norm.weight = util.global.load @__auto.blk.21.ffn_norm.weight : tensor<4096xf32>
    %__auto.blk.21.ffn_gate.weight = util.global.load @__auto.blk.21.ffn_gate.weight : tensor<14336x4096xf16>
    %__auto.blk.21.ffn_up.weight = util.global.load @__auto.blk.21.ffn_up.weight : tensor<14336x4096xf16>
    %__auto.blk.21.ffn_down.weight = util.global.load @__auto.blk.21.ffn_down.weight : tensor<4096x14336xf16>
    %__auto.blk.22.attn_norm.weight = util.global.load @__auto.blk.22.attn_norm.weight : tensor<4096xf32>
    %__auto.blk.22.attn_q.weight = util.global.load @__auto.blk.22.attn_q.weight : tensor<4096x4096xf16>
    %__auto.blk.22.attn_k.weight = util.global.load @__auto.blk.22.attn_k.weight : tensor<1024x4096xf16>
    %__auto.blk.22.attn_v.weight = util.global.load @__auto.blk.22.attn_v.weight : tensor<1024x4096xf16>
    %__auto.blk.22.attn_output.weight = util.global.load @__auto.blk.22.attn_output.weight : tensor<4096x4096xf16>
    %__auto.blk.22.ffn_norm.weight = util.global.load @__auto.blk.22.ffn_norm.weight : tensor<4096xf32>
    %__auto.blk.22.ffn_gate.weight = util.global.load @__auto.blk.22.ffn_gate.weight : tensor<14336x4096xf16>
    %__auto.blk.22.ffn_up.weight = util.global.load @__auto.blk.22.ffn_up.weight : tensor<14336x4096xf16>
    %__auto.blk.22.ffn_down.weight = util.global.load @__auto.blk.22.ffn_down.weight : tensor<4096x14336xf16>
    %__auto.blk.23.attn_norm.weight = util.global.load @__auto.blk.23.attn_norm.weight : tensor<4096xf32>
    %__auto.blk.23.attn_q.weight = util.global.load @__auto.blk.23.attn_q.weight : tensor<4096x4096xf16>
    %__auto.blk.23.attn_k.weight = util.global.load @__auto.blk.23.attn_k.weight : tensor<1024x4096xf16>
    %__auto.blk.23.attn_v.weight = util.global.load @__auto.blk.23.attn_v.weight : tensor<1024x4096xf16>
    %__auto.blk.23.attn_output.weight = util.global.load @__auto.blk.23.attn_output.weight : tensor<4096x4096xf16>
    %__auto.blk.23.ffn_norm.weight = util.global.load @__auto.blk.23.ffn_norm.weight : tensor<4096xf32>
    %__auto.blk.23.ffn_gate.weight = util.global.load @__auto.blk.23.ffn_gate.weight : tensor<14336x4096xf16>
    %__auto.blk.23.ffn_up.weight = util.global.load @__auto.blk.23.ffn_up.weight : tensor<14336x4096xf16>
    %__auto.blk.23.ffn_down.weight = util.global.load @__auto.blk.23.ffn_down.weight : tensor<4096x14336xf16>
    %__auto.blk.24.attn_norm.weight = util.global.load @__auto.blk.24.attn_norm.weight : tensor<4096xf32>
    %__auto.blk.24.attn_q.weight = util.global.load @__auto.blk.24.attn_q.weight : tensor<4096x4096xf16>
    %__auto.blk.24.attn_k.weight = util.global.load @__auto.blk.24.attn_k.weight : tensor<1024x4096xf16>
    %__auto.blk.24.attn_v.weight = util.global.load @__auto.blk.24.attn_v.weight : tensor<1024x4096xf16>
    %__auto.blk.24.attn_output.weight = util.global.load @__auto.blk.24.attn_output.weight : tensor<4096x4096xf16>
    %__auto.blk.24.ffn_norm.weight = util.global.load @__auto.blk.24.ffn_norm.weight : tensor<4096xf32>
    %__auto.blk.24.ffn_gate.weight = util.global.load @__auto.blk.24.ffn_gate.weight : tensor<14336x4096xf16>
    %__auto.blk.24.ffn_up.weight = util.global.load @__auto.blk.24.ffn_up.weight : tensor<14336x4096xf16>
    %__auto.blk.24.ffn_down.weight = util.global.load @__auto.blk.24.ffn_down.weight : tensor<4096x14336xf16>
    %__auto.blk.25.attn_norm.weight = util.global.load @__auto.blk.25.attn_norm.weight : tensor<4096xf32>
    %__auto.blk.25.attn_q.weight = util.global.load @__auto.blk.25.attn_q.weight : tensor<4096x4096xf16>
    %__auto.blk.25.attn_k.weight = util.global.load @__auto.blk.25.attn_k.weight : tensor<1024x4096xf16>
    %__auto.blk.25.attn_v.weight = util.global.load @__auto.blk.25.attn_v.weight : tensor<1024x4096xf16>
    %__auto.blk.25.attn_output.weight = util.global.load @__auto.blk.25.attn_output.weight : tensor<4096x4096xf16>
    %__auto.blk.25.ffn_norm.weight = util.global.load @__auto.blk.25.ffn_norm.weight : tensor<4096xf32>
    %__auto.blk.25.ffn_gate.weight = util.global.load @__auto.blk.25.ffn_gate.weight : tensor<14336x4096xf16>
    %__auto.blk.25.ffn_up.weight = util.global.load @__auto.blk.25.ffn_up.weight : tensor<14336x4096xf16>
    %__auto.blk.25.ffn_down.weight = util.global.load @__auto.blk.25.ffn_down.weight : tensor<4096x14336xf16>
    %__auto.blk.26.attn_norm.weight = util.global.load @__auto.blk.26.attn_norm.weight : tensor<4096xf32>
    %__auto.blk.26.attn_q.weight = util.global.load @__auto.blk.26.attn_q.weight : tensor<4096x4096xf16>
    %__auto.blk.26.attn_k.weight = util.global.load @__auto.blk.26.attn_k.weight : tensor<1024x4096xf16>
    %__auto.blk.26.attn_v.weight = util.global.load @__auto.blk.26.attn_v.weight : tensor<1024x4096xf16>
    %__auto.blk.26.attn_output.weight = util.global.load @__auto.blk.26.attn_output.weight : tensor<4096x4096xf16>
    %__auto.blk.26.ffn_norm.weight = util.global.load @__auto.blk.26.ffn_norm.weight : tensor<4096xf32>
    %__auto.blk.26.ffn_gate.weight = util.global.load @__auto.blk.26.ffn_gate.weight : tensor<14336x4096xf16>
    %__auto.blk.26.ffn_up.weight = util.global.load @__auto.blk.26.ffn_up.weight : tensor<14336x4096xf16>
    %__auto.blk.26.ffn_down.weight = util.global.load @__auto.blk.26.ffn_down.weight : tensor<4096x14336xf16>
    %__auto.blk.27.attn_norm.weight = util.global.load @__auto.blk.27.attn_norm.weight : tensor<4096xf32>
    %__auto.blk.27.attn_q.weight = util.global.load @__auto.blk.27.attn_q.weight : tensor<4096x4096xf16>
    %__auto.blk.27.attn_k.weight = util.global.load @__auto.blk.27.attn_k.weight : tensor<1024x4096xf16>
    %__auto.blk.27.attn_v.weight = util.global.load @__auto.blk.27.attn_v.weight : tensor<1024x4096xf16>
    %__auto.blk.27.attn_output.weight = util.global.load @__auto.blk.27.attn_output.weight : tensor<4096x4096xf16>
    %__auto.blk.27.ffn_norm.weight = util.global.load @__auto.blk.27.ffn_norm.weight : tensor<4096xf32>
    %__auto.blk.27.ffn_gate.weight = util.global.load @__auto.blk.27.ffn_gate.weight : tensor<14336x4096xf16>
    %__auto.blk.27.ffn_up.weight = util.global.load @__auto.blk.27.ffn_up.weight : tensor<14336x4096xf16>
    %__auto.blk.27.ffn_down.weight = util.global.load @__auto.blk.27.ffn_down.weight : tensor<4096x14336xf16>
    %__auto.blk.28.attn_norm.weight = util.global.load @__auto.blk.28.attn_norm.weight : tensor<4096xf32>
    %__auto.blk.28.attn_q.weight = util.global.load @__auto.blk.28.attn_q.weight : tensor<4096x4096xf16>
    %__auto.blk.28.attn_k.weight = util.global.load @__auto.blk.28.attn_k.weight : tensor<1024x4096xf16>
    %__auto.blk.28.attn_v.weight = util.global.load @__auto.blk.28.attn_v.weight : tensor<1024x4096xf16>
    %__auto.blk.28.attn_output.weight = util.global.load @__auto.blk.28.attn_output.weight : tensor<4096x4096xf16>
    %__auto.blk.28.ffn_norm.weight = util.global.load @__auto.blk.28.ffn_norm.weight : tensor<4096xf32>
    %__auto.blk.28.ffn_gate.weight = util.global.load @__auto.blk.28.ffn_gate.weight : tensor<14336x4096xf16>
    %__auto.blk.28.ffn_up.weight = util.global.load @__auto.blk.28.ffn_up.weight : tensor<14336x4096xf16>
    %__auto.blk.28.ffn_down.weight = util.global.load @__auto.blk.28.ffn_down.weight : tensor<4096x14336xf16>
    %__auto.blk.29.attn_norm.weight = util.global.load @__auto.blk.29.attn_norm.weight : tensor<4096xf32>
    %__auto.blk.29.attn_q.weight = util.global.load @__auto.blk.29.attn_q.weight : tensor<4096x4096xf16>
    %__auto.blk.29.attn_k.weight = util.global.load @__auto.blk.29.attn_k.weight : tensor<1024x4096xf16>
    %__auto.blk.29.attn_v.weight = util.global.load @__auto.blk.29.attn_v.weight : tensor<1024x4096xf16>
    %__auto.blk.29.attn_output.weight = util.global.load @__auto.blk.29.attn_output.weight : tensor<4096x4096xf16>
    %__auto.blk.29.ffn_norm.weight = util.global.load @__auto.blk.29.ffn_norm.weight : tensor<4096xf32>
    %__auto.blk.29.ffn_gate.weight = util.global.load @__auto.blk.29.ffn_gate.weight : tensor<14336x4096xf16>
    %__auto.blk.29.ffn_up.weight = util.global.load @__auto.blk.29.ffn_up.weight : tensor<14336x4096xf16>
    %__auto.blk.29.ffn_down.weight = util.global.load @__auto.blk.29.ffn_down.weight : tensor<4096x14336xf16>
    %__auto.blk.30.attn_norm.weight = util.global.load @__auto.blk.30.attn_norm.weight : tensor<4096xf32>
    %__auto.blk.30.attn_q.weight = util.global.load @__auto.blk.30.attn_q.weight : tensor<4096x4096xf16>
    %__auto.blk.30.attn_k.weight = util.global.load @__auto.blk.30.attn_k.weight : tensor<1024x4096xf16>
    %__auto.blk.30.attn_v.weight = util.global.load @__auto.blk.30.attn_v.weight : tensor<1024x4096xf16>
    %__auto.blk.30.attn_output.weight = util.global.load @__auto.blk.30.attn_output.weight : tensor<4096x4096xf16>
    %__auto.blk.30.ffn_norm.weight = util.global.load @__auto.blk.30.ffn_norm.weight : tensor<4096xf32>
    %__auto.blk.30.ffn_gate.weight = util.global.load @__auto.blk.30.ffn_gate.weight : tensor<14336x4096xf16>
    %__auto.blk.30.ffn_up.weight = util.global.load @__auto.blk.30.ffn_up.weight : tensor<14336x4096xf16>
    %__auto.blk.30.ffn_down.weight = util.global.load @__auto.blk.30.ffn_down.weight : tensor<4096x14336xf16>
    %__auto.blk.31.attn_norm.weight = util.global.load @__auto.blk.31.attn_norm.weight : tensor<4096xf32>
    %__auto.blk.31.attn_q.weight = util.global.load @__auto.blk.31.attn_q.weight : tensor<4096x4096xf16>
    %__auto.blk.31.attn_k.weight = util.global.load @__auto.blk.31.attn_k.weight : tensor<1024x4096xf16>
    %__auto.blk.31.attn_v.weight = util.global.load @__auto.blk.31.attn_v.weight : tensor<1024x4096xf16>
    %__auto.blk.31.attn_output.weight = util.global.load @__auto.blk.31.attn_output.weight : tensor<4096x4096xf16>
    %__auto.blk.31.ffn_norm.weight = util.global.load @__auto.blk.31.ffn_norm.weight : tensor<4096xf32>
    %__auto.blk.31.ffn_gate.weight = util.global.load @__auto.blk.31.ffn_gate.weight : tensor<14336x4096xf16>
    %__auto.blk.31.ffn_up.weight = util.global.load @__auto.blk.31.ffn_up.weight : tensor<14336x4096xf16>
    %__auto.blk.31.ffn_down.weight = util.global.load @__auto.blk.31.ffn_down.weight : tensor<4096x14336xf16>
    %__auto.output_norm.weight = util.global.load @__auto.output_norm.weight : tensor<4096xf32>
    %__auto.output.weight = util.global.load @__auto.output.weight : tensor<128256x4096xf16>
    %5 = hal.buffer_view.dim<%arg3 : !hal.buffer_view>[0] : index
    %6 = hal.tensor.import wait(%arg4) => %arg3 : !hal.buffer_view -> tensor<?x1048576xf16>{%5}
    %dim = tensor.dim %1, %c1 : tensor<4x?xi64>
    %7 = tensor.empty(%dim) : tensor<?xi64>
    %8 = linalg.generic {indexing_maps = [affine_map<(d0) -> (d0)>], iterator_types = ["parallel"]} outs(%7 : tensor<?xi64>) {
    ^bb0(%out: i64):
      %2559 = linalg.index 0 : index
      %2560 = arith.index_cast %2559 : index to i64
      linalg.yield %2560 : i64
    } -> tensor<?xi64>
    %expanded = tensor.expand_shape %2 [[0, 1]] output_shape [4, 1] : tensor<4xi64> into tensor<4x1xi64>
    %9 = tensor.empty(%dim) : tensor<4x?xi1>
    %10 = linalg.generic {indexing_maps = [affine_map<(d0, d1) -> (d1)>, affine_map<(d0, d1) -> (d0, 0)>, affine_map<(d0, d1) -> (d0, d1)>], iterator_types = ["parallel", "parallel"]} ins(%8, %expanded : tensor<?xi64>, tensor<4x1xi64>) outs(%9 : tensor<4x?xi1>) {
    ^bb0(%in: i64, %in_1081: i64, %out: i1):
      %2559 = arith.cmpi sge, %in, %in_1081 : i64
      linalg.yield %2559 : i1
    } -> tensor<4x?xi1>
    %__auto.constant_1_1_8192_8192_torch.uint8 = util.global.load @__auto.constant_1_1_8192_8192_torch.uint8 : tensor<1x1x8192x8192xi8>
    %11 = tensor.empty() : tensor<1x1x8192x8192xi1>
    %12 = linalg.generic {indexing_maps = [affine_map<(d0, d1, d2, d3) -> (0, 0, d2, d3)>, affine_map<(d0, d1, d2, d3) -> (d0, d1, d2, d3)>], iterator_types = ["parallel", "parallel", "parallel", "parallel"]} ins(%__auto.constant_1_1_8192_8192_torch.uint8 : tensor<1x1x8192x8192xi8>) outs(%11 : tensor<1x1x8192x8192xi1>) {
    ^bb0(%in: i8, %out: i1):
      %2559 = arith.cmpi ne, %in, %c0_i8 : i8
      linalg.yield %2559 : i1
    } -> tensor<1x1x8192x8192xi1>
    %13 = arith.cmpi slt, %dim, %c0 : index
    %14 = arith.addi %dim, %c8192 : index
    %15 = arith.select %13, %14, %dim : index
    %16 = arith.cmpi slt, %15, %c0 : index
    %17 = arith.select %16, %c-1, %15 : index
    %18 = arith.cmpi sgt, %17, %c8192 : index
    %19 = arith.select %18, %c8192, %17 : index
    %20 = arith.cmpi slt, %19, %c0 : index
    %21 = arith.select %20, %c0, %19 : index
    %extracted_slice = tensor.extract_slice %12[0, 0, 0, 0] [1, 1, %21, 8192] [1, 1, 1, 1] : tensor<1x1x8192x8192xi1> to tensor<1x1x?x8192xi1>
    %extracted_slice_9 = tensor.extract_slice %extracted_slice[0, 0, 0, 0] [1, 1, %21, %21] [1, 1, 1, 1] : tensor<1x1x?x8192xi1> to tensor<1x1x?x?xi1>
    %expanded_10 = tensor.expand_shape %10 [[0], [1, 2, 3]] output_shape [4, 1, 1, %dim] : tensor<4x?xi1> into tensor<4x1x1x?xi1>
    %22 = tensor.empty(%21, %21) : tensor<4x1x?x?xi1>
    %23 = linalg.generic {indexing_maps = [affine_map<(d0, d1, d2, d3) -> (0, 0, d2, d3)>, affine_map<(d0, d1, d2, d3) -> (d0, 0, 0, d3)>, affine_map<(d0, d1, d2, d3) -> (d0, d1, d2, d3)>], iterator_types = ["parallel", "parallel", "parallel", "parallel"]} ins(%extracted_slice_9, %expanded_10 : tensor<1x1x?x?xi1>, tensor<4x1x1x?xi1>) outs(%22 : tensor<4x1x?x?xi1>) {
    ^bb0(%in: i1, %in_1081: i1, %out: i1):
      %2559 = arith.addi %in, %in_1081 : i1
      linalg.yield %2559 : i1
    } -> tensor<4x1x?x?xi1>
    %24 = tensor.empty() : tensor<f16>
    %25 = linalg.generic {indexing_maps = [affine_map<() -> ()>, affine_map<() -> ()>], iterator_types = []} ins(%cst_0 : tensor<i64>) outs(%24 : tensor<f16>) {
    ^bb0(%in: i64, %out: f16):
      %2559 = arith.sitofp %in : i64 to f16
      linalg.yield %2559 : f16
    } -> tensor<f16>
    %26 = arith.index_cast %21 : index to i64
    %27 = arith.index_cast %26 : i64 to index
    %28 = tensor.empty(%27, %27) : tensor<4x1x?x?xf16>
    %29 = linalg.generic {indexing_maps = [affine_map<(d0, d1, d2, d3) -> ()>, affine_map<(d0, d1, d2, d3) -> (d0, d1, d2, d3)>], iterator_types = ["parallel", "parallel", "parallel", "parallel"]} ins(%25 : tensor<f16>) outs(%28 : tensor<4x1x?x?xf16>) {
    ^bb0(%in: f16, %out: f16):
      linalg.yield %in : f16
    } -> tensor<4x1x?x?xf16>
    %30 = linalg.generic {indexing_maps = [affine_map<() -> ()>, affine_map<() -> ()>], iterator_types = []} ins(%cst : tensor<f32>) outs(%24 : tensor<f16>) {
    ^bb0(%in: f32, %out: f16):
      %2559 = arith.truncf %in : f32 to f16
      linalg.yield %2559 : f16
    } -> tensor<f16>
    %31 = tensor.empty(%21, %21) : tensor<4x1x?x?xf16>
    %32 = linalg.generic {indexing_maps = [affine_map<(d0, d1, d2, d3) -> (d0, 0, d2, d3)>, affine_map<(d0, d1, d2, d3) -> ()>, affine_map<(d0, d1, d2, d3) -> (d0, 0, d2, d3)>, affine_map<(d0, d1, d2, d3) -> (d0, d1, d2, d3)>], iterator_types = ["parallel", "parallel", "parallel", "parallel"]} ins(%23, %30, %29 : tensor<4x1x?x?xi1>, tensor<f16>, tensor<4x1x?x?xf16>) outs(%31 : tensor<4x1x?x?xf16>) {
    ^bb0(%in: i1, %in_1081: f16, %in_1082: f16, %out: f16):
      %2559 = arith.select %in, %in_1081, %in_1082 : f16
      linalg.yield %2559 : f16
    } -> tensor<4x1x?x?xf16>
    %33 = tensor.empty(%dim) : tensor<4x?x4096xf16>
    %34 = linalg.generic {indexing_maps = [affine_map<(d0, d1, d2) -> (d0, d1)>, affine_map<(d0, d1, d2) -> (d0, d1, d2)>], iterator_types = ["parallel", "parallel", "parallel"]} ins(%1 : tensor<4x?xi64>) outs(%33 : tensor<4x?x4096xf16>) {
    ^bb0(%in: i64, %out: f16):
      %2559 = arith.index_cast %in : i64 to index
      %2560 = linalg.index 2 : index
      %2561 = arith.cmpi slt, %2559, %c128256 : index
      cf.assert %2561, "index must be smaller than dim size"
      %2562 = arith.cmpi sge, %in, %c0_i64 : i64
      cf.assert %2562, "index must be larger or equal to 0"
      %extracted = tensor.extract %__auto.token_embd.weight[%2559, %2560] : tensor<128256x4096xf16>
      linalg.yield %extracted : f16
    } -> tensor<4x?x4096xf16>
    %35 = tensor.empty(%dim) : tensor<4x?x4096xf32>
    %36 = linalg.generic {indexing_maps = [affine_map<(d0, d1, d2) -> (d0, d1, d2)>, affine_map<(d0, d1, d2) -> (d0, d1, d2)>], iterator_types = ["parallel", "parallel", "parallel"]} ins(%34 : tensor<4x?x4096xf16>) outs(%35 : tensor<4x?x4096xf32>) {
    ^bb0(%in: f16, %out: f32):
      %2559 = arith.extf %in : f16 to f32
      linalg.yield %2559 : f32
    } -> tensor<4x?x4096xf32>
    %37 = linalg.generic {indexing_maps = [affine_map<(d0, d1, d2) -> (d0, d1, d2)>, affine_map<(d0, d1, d2) -> (d0, d1, d2)>], iterator_types = ["parallel", "parallel", "parallel"]} ins(%36 : tensor<4x?x4096xf32>) outs(%35 : tensor<4x?x4096xf32>) {
    ^bb0(%in: f32, %out: f32):
      %2559 = math.powf %in, %cst_6 : f32
      linalg.yield %2559 : f32
    } -> tensor<4x?x4096xf32>
    %38 = tensor.empty(%dim) : tensor<4x?x1xf32>
    %39 = linalg.fill ins(%cst_1 : f32) outs(%38 : tensor<4x?x1xf32>) -> tensor<4x?x1xf32>
    %40 = linalg.generic {indexing_maps = [affine_map<(d0, d1, d2) -> (d0, d1, d2)>, affine_map<(d0, d1, d2) -> (d0, d1, 0)>], iterator_types = ["parallel", "parallel", "reduction"]} ins(%37 : tensor<4x?x4096xf32>) outs(%39 : tensor<4x?x1xf32>) {
    ^bb0(%in: f32, %out: f32):
      %2559 = arith.addf %in, %out : f32
      linalg.yield %2559 : f32
    } -> tensor<4x?x1xf32>
    %41 = linalg.generic {indexing_maps = [affine_map<(d0, d1, d2) -> (d0, d1, 0)>, affine_map<(d0, d1, d2) -> (d0, d1, d2)>], iterator_types = ["parallel", "parallel", "parallel"]} ins(%40 : tensor<4x?x1xf32>) outs(%38 : tensor<4x?x1xf32>) {
    ^bb0(%in: f32, %out: f32):
      %2559 = arith.divf %in, %cst_7 : f32
      linalg.yield %2559 : f32
    } -> tensor<4x?x1xf32>
    %42 = linalg.generic {indexing_maps = [affine_map<(d0, d1, d2) -> (d0, d1, 0)>, affine_map<(d0, d1, d2) -> (d0, d1, d2)>], iterator_types = ["parallel", "parallel", "parallel"]} ins(%41 : tensor<4x?x1xf32>) outs(%38 : tensor<4x?x1xf32>) {
    ^bb0(%in: f32, %out: f32):
      %2559 = arith.addf %in, %cst_8 : f32
      linalg.yield %2559 : f32
    } -> tensor<4x?x1xf32>
    %43 = linalg.generic {indexing_maps = [affine_map<(d0, d1, d2) -> (d0, d1, 0)>, affine_map<(d0, d1, d2) -> (d0, d1, d2)>], iterator_types = ["parallel", "parallel", "parallel"]} ins(%42 : tensor<4x?x1xf32>) outs(%38 : tensor<4x?x1xf32>) {
    ^bb0(%in: f32, %out: f32):
      %2559 = math.rsqrt %in : f32
      linalg.yield %2559 : f32
    } -> tensor<4x?x1xf32>
    %44 = linalg.generic {indexing_maps = [affine_map<(d0, d1, d2) -> (d0, d1, d2)>, affine_map<(d0, d1, d2) -> (d0, d1, 0)>, affine_map<(d0, d1, d2) -> (d0, d1, d2)>], iterator_types = ["parallel", "parallel", "parallel"]} ins(%36, %43 : tensor<4x?x4096xf32>, tensor<4x?x1xf32>) outs(%35 : tensor<4x?x4096xf32>) {
    ^bb0(%in: f32, %in_1081: f32, %out: f32):
      %2559 = arith.mulf %in, %in_1081 : f32
      linalg.yield %2559 : f32
    } -> tensor<4x?x4096xf32>
    %45 = linalg.generic {indexing_maps = [affine_map<(d0, d1, d2) -> (d0, d1, d2)>, affine_map<(d0, d1, d2) -> (d2)>, affine_map<(d0, d1, d2) -> (d0, d1, d2)>], iterator_types = ["parallel", "parallel", "parallel"]} ins(%44, %__auto.blk.0.attn_norm.weight : tensor<4x?x4096xf32>, tensor<4096xf32>) outs(%35 : tensor<4x?x4096xf32>) {
    ^bb0(%in: f32, %in_1081: f32, %out: f32):
      %2559 = arith.mulf %in, %in_1081 : f32
      linalg.yield %2559 : f32
    } -> tensor<4x?x4096xf32>
    %46 = linalg.generic {indexing_maps = [affine_map<(d0, d1, d2) -> (d0, d1, d2)>, affine_map<(d0, d1, d2) -> (d0, d1, d2)>], iterator_types = ["parallel", "parallel", "parallel"]} ins(%45 : tensor<4x?x4096xf32>) outs(%33 : tensor<4x?x4096xf16>) {
    ^bb0(%in: f32, %out: f16):
      %2559 = arith.truncf %in : f32 to f16
      linalg.yield %2559 : f16
    } -> tensor<4x?x4096xf16>
    %47 = tensor.empty() : tensor<4096x4096xf16>
    %48 = linalg.generic {indexing_maps = [affine_map<(d0, d1) -> (d0, d1)>, affine_map<(d0, d1) -> (d1, d0)>], iterator_types = ["parallel", "parallel"]} ins(%__auto.blk.0.attn_q.weight : tensor<4096x4096xf16>) outs(%47 : tensor<4096x4096xf16>) {
    ^bb0(%in: f16, %out: f16):
      linalg.yield %in : f16
    } -> tensor<4096x4096xf16>
    %collapsed = tensor.collapse_shape %46 [[0, 1], [2]] : tensor<4x?x4096xf16> into tensor<?x4096xf16>
    %49 = affine.apply affine_map<()[s0] -> (s0 * 4)>()[%dim]
    %50 = tensor.empty(%49) : tensor<?x4096xf32>
    %51 = linalg.fill ins(%cst_1 : f32) outs(%50 : tensor<?x4096xf32>) -> tensor<?x4096xf32>
    %52 = linalg.matmul ins(%collapsed, %48 : tensor<?x4096xf16>, tensor<4096x4096xf16>) outs(%51 : tensor<?x4096xf32>) -> tensor<?x4096xf32>
    %53 = tensor.empty(%49) : tensor<?x4096xf16>
    %54 = linalg.generic {indexing_maps = [affine_map<(d0, d1) -> (d0, d1)>, affine_map<(d0, d1) -> (d0, d1)>], iterator_types = ["parallel", "parallel"]} ins(%52 : tensor<?x4096xf32>) outs(%53 : tensor<?x4096xf16>) {
    ^bb0(%in: f32, %out: f16):
      %2559 = arith.truncf %in : f32 to f16
      linalg.yield %2559 : f16
    } -> tensor<?x4096xf16>
    %55 = tensor.empty() : tensor<4096x1024xf16>
    %56 = linalg.generic {indexing_maps = [affine_map<(d0, d1) -> (d0, d1)>, affine_map<(d0, d1) -> (d1, d0)>], iterator_types = ["parallel", "parallel"]} ins(%__auto.blk.0.attn_k.weight : tensor<1024x4096xf16>) outs(%55 : tensor<4096x1024xf16>) {
    ^bb0(%in: f16, %out: f16):
      linalg.yield %in : f16
    } -> tensor<4096x1024xf16>
    %57 = tensor.empty(%49) : tensor<?x1024xf32>
    %58 = linalg.fill ins(%cst_1 : f32) outs(%57 : tensor<?x1024xf32>) -> tensor<?x1024xf32>
    %59 = linalg.matmul ins(%collapsed, %56 : tensor<?x4096xf16>, tensor<4096x1024xf16>) outs(%58 : tensor<?x1024xf32>) -> tensor<?x1024xf32>
    %60 = tensor.empty(%49) : tensor<?x1024xf16>
    %61 = linalg.generic {indexing_maps = [affine_map<(d0, d1) -> (d0, d1)>, affine_map<(d0, d1) -> (d0, d1)>], iterator_types = ["parallel", "parallel"]} ins(%59 : tensor<?x1024xf32>) outs(%60 : tensor<?x1024xf16>) {
    ^bb0(%in: f32, %out: f16):
      %2559 = arith.truncf %in : f32 to f16
      linalg.yield %2559 : f16
    } -> tensor<?x1024xf16>
    %62 = linalg.generic {indexing_maps = [affine_map<(d0, d1) -> (d0, d1)>, affine_map<(d0, d1) -> (d1, d0)>], iterator_types = ["parallel", "parallel"]} ins(%__auto.blk.0.attn_v.weight : tensor<1024x4096xf16>) outs(%55 : tensor<4096x1024xf16>) {
    ^bb0(%in: f16, %out: f16):
      linalg.yield %in : f16
    } -> tensor<4096x1024xf16>
    %63 = linalg.matmul ins(%collapsed, %62 : tensor<?x4096xf16>, tensor<4096x1024xf16>) outs(%58 : tensor<?x1024xf32>) -> tensor<?x1024xf32>
    %64 = linalg.generic {indexing_maps = [affine_map<(d0, d1) -> (d0, d1)>, affine_map<(d0, d1) -> (d0, d1)>], iterator_types = ["parallel", "parallel"]} ins(%63 : tensor<?x1024xf32>) outs(%60 : tensor<?x1024xf16>) {
    ^bb0(%in: f32, %out: f16):
      %2559 = arith.truncf %in : f32 to f16
      linalg.yield %2559 : f16
    } -> tensor<?x1024xf16>
    %expanded_11 = tensor.expand_shape %54 [[0, 1], [2, 3]] output_shape [4, %dim, 32, 128] : tensor<?x4096xf16> into tensor<4x?x32x128xf16>
    %expanded_12 = tensor.expand_shape %61 [[0, 1], [2, 3]] output_shape [4, %dim, 8, 128] : tensor<?x1024xf16> into tensor<4x?x8x128xf16>
    %65 = arith.index_cast %dim : index to i64
    %66 = arith.muli %65, %c256_i64 : i64
    %67 = arith.muli %65, %c16384_i64 : i64
    %68 = arith.divui %67, %66 : i64
    %from_elements = tensor.from_elements %c4_i64, %65, %c32_i64, %68, %c2_i64 : tensor<5xi64>
    %reshape = tensor.reshape %expanded_11(%from_elements) : (tensor<4x?x32x128xf16>, tensor<5xi64>) -> tensor<4x?x32x64x2xf16>
    %69 = arith.index_cast %65 : i64 to index
    %70 = tensor.empty(%69) : tensor<4x?x32x64xcomplex<f16>>
    %71 = linalg.generic {indexing_maps = [affine_map<(d0, d1, d2, d3) -> (d0, d1, d2, d3)>], iterator_types = ["parallel", "parallel", "parallel", "parallel"]} outs(%70 : tensor<4x?x32x64xcomplex<f16>>) {
    ^bb0(%out: complex<f16>):
      %2559 = linalg.index 0 : index
      %2560 = linalg.index 1 : index
      %2561 = linalg.index 2 : index
      %2562 = linalg.index 3 : index
      %extracted = tensor.extract %reshape[%2559, %2560, %2561, %2562, %c0] : tensor<4x?x32x64x2xf16>
      %extracted_1081 = tensor.extract %reshape[%2559, %2560, %2561, %2562, %c1] : tensor<4x?x32x64x2xf16>
      %2563 = complex.create %extracted, %extracted_1081 : complex<f16>
      linalg.yield %2563 : complex<f16>
    } -> tensor<4x?x32x64xcomplex<f16>>
    %72 = arith.muli %65, %c64_i64 : i64
    %73 = arith.muli %65, %c4096_i64 : i64
    %74 = arith.divui %73, %72 : i64
    %from_elements_13 = tensor.from_elements %c4_i64, %65, %c8_i64, %74, %c2_i64 : tensor<5xi64>
    %reshape_14 = tensor.reshape %expanded_12(%from_elements_13) : (tensor<4x?x8x128xf16>, tensor<5xi64>) -> tensor<4x?x8x64x2xf16>
    %75 = tensor.empty(%69) : tensor<4x?x8x64xcomplex<f16>>
    %76 = linalg.generic {indexing_maps = [affine_map<(d0, d1, d2, d3) -> (d0, d1, d2, d3)>], iterator_types = ["parallel", "parallel", "parallel", "parallel"]} outs(%75 : tensor<4x?x8x64xcomplex<f16>>) {
    ^bb0(%out: complex<f16>):
      %2559 = linalg.index 0 : index
      %2560 = linalg.index 1 : index
      %2561 = linalg.index 2 : index
      %2562 = linalg.index 3 : index
      %extracted = tensor.extract %reshape_14[%2559, %2560, %2561, %2562, %c0] : tensor<4x?x8x64x2xf16>
      %extracted_1081 = tensor.extract %reshape_14[%2559, %2560, %2561, %2562, %c1] : tensor<4x?x8x64x2xf16>
      %2563 = complex.create %extracted, %extracted_1081 : complex<f16>
      linalg.yield %2563 : complex<f16>
    } -> tensor<4x?x8x64xcomplex<f16>>
    %77 = arith.index_cast %65 : i64 to index
    %78 = arith.cmpi slt, %77, %c0 : index
    %79 = arith.addi %77, %c8192 : index
    %80 = arith.select %78, %79, %77 : index
    %81 = arith.cmpi slt, %80, %c0 : index
    %82 = arith.select %81, %c-1, %80 : index
    %83 = arith.cmpi sgt, %82, %c8192 : index
    %84 = arith.select %83, %c8192, %82 : index
    %85 = arith.cmpi slt, %84, %c0 : index
    %86 = arith.select %85, %c0, %84 : index
    %extracted_slice_15 = tensor.extract_slice %__auto.constant_8192_64_torch.complex64[0, 0] [%86, 64] [1, 1] : tensor<8192x64xcomplex<f32>> to tensor<?x64xcomplex<f32>>
    %expanded_16 = tensor.expand_shape %extracted_slice_15 [[0, 1], [2, 3]] output_shape [1, %86, 1, 64] : tensor<?x64xcomplex<f32>> into tensor<1x?x1x64xcomplex<f32>>
    %87 = tensor.empty(%69) : tensor<4x?x32x64xcomplex<f32>>
    %88 = linalg.generic {indexing_maps = [affine_map<(d0, d1, d2, d3) -> (d0, d1, d2, d3)>, affine_map<(d0, d1, d2, d3) -> (0, d1, 0, d3)>, affine_map<(d0, d1, d2, d3) -> (d0, d1, d2, d3)>], iterator_types = ["parallel", "parallel", "parallel", "parallel"]} ins(%71, %expanded_16 : tensor<4x?x32x64xcomplex<f16>>, tensor<1x?x1x64xcomplex<f32>>) outs(%87 : tensor<4x?x32x64xcomplex<f32>>) {
    ^bb0(%in: complex<f16>, %in_1081: complex<f32>, %out: complex<f32>):
      %2559 = complex.re %in : complex<f16>
      %2560 = complex.im %in : complex<f16>
      %2561 = arith.extf %2559 : f16 to f32
      %2562 = arith.extf %2560 : f16 to f32
      %2563 = complex.create %2561, %2562 : complex<f32>
      %2564 = complex.mul %2563, %in_1081 : complex<f32>
      linalg.yield %2564 : complex<f32>
    } -> tensor<4x?x32x64xcomplex<f32>>
    %89 = tensor.empty(%69) : tensor<4x?x32x64x2xf32>
    %90 = linalg.generic {indexing_maps = [affine_map<(d0, d1, d2, d3, d4) -> (d0, d1, d2, d3)>, affine_map<(d0, d1, d2, d3, d4) -> (d0, d1, d2, d3, d4)>], iterator_types = ["parallel", "parallel", "parallel", "parallel", "parallel"]} ins(%88 : tensor<4x?x32x64xcomplex<f32>>) outs(%89 : tensor<4x?x32x64x2xf32>) {
    ^bb0(%in: complex<f32>, %out: f32):
      %2559 = complex.re %in : complex<f32>
      %2560 = complex.im %in : complex<f32>
      %2561 = linalg.index 4 : index
      %2562 = arith.cmpi eq, %2561, %c0 : index
      %2563 = arith.select %2562, %2559, %2560 : f32
      linalg.yield %2563 : f32
    } -> tensor<4x?x32x64x2xf32>
    %collapsed_17 = tensor.collapse_shape %90 [[0], [1], [2], [3, 4]] : tensor<4x?x32x64x2xf32> into tensor<4x?x32x128xf32>
    %91 = tensor.empty(%69) : tensor<4x?x8x64xcomplex<f32>>
    %92 = linalg.generic {indexing_maps = [affine_map<(d0, d1, d2, d3) -> (d0, d1, d2, d3)>, affine_map<(d0, d1, d2, d3) -> (0, d1, 0, d3)>, affine_map<(d0, d1, d2, d3) -> (d0, d1, d2, d3)>], iterator_types = ["parallel", "parallel", "parallel", "parallel"]} ins(%76, %expanded_16 : tensor<4x?x8x64xcomplex<f16>>, tensor<1x?x1x64xcomplex<f32>>) outs(%91 : tensor<4x?x8x64xcomplex<f32>>) {
    ^bb0(%in: complex<f16>, %in_1081: complex<f32>, %out: complex<f32>):
      %2559 = complex.re %in : complex<f16>
      %2560 = complex.im %in : complex<f16>
      %2561 = arith.extf %2559 : f16 to f32
      %2562 = arith.extf %2560 : f16 to f32
      %2563 = complex.create %2561, %2562 : complex<f32>
      %2564 = complex.mul %2563, %in_1081 : complex<f32>
      linalg.yield %2564 : complex<f32>
    } -> tensor<4x?x8x64xcomplex<f32>>
    %93 = tensor.empty(%69) : tensor<4x?x8x64x2xf32>
    %94 = linalg.generic {indexing_maps = [affine_map<(d0, d1, d2, d3, d4) -> (d0, d1, d2, d3)>, affine_map<(d0, d1, d2, d3, d4) -> (d0, d1, d2, d3, d4)>], iterator_types = ["parallel", "parallel", "parallel", "parallel", "parallel"]} ins(%92 : tensor<4x?x8x64xcomplex<f32>>) outs(%93 : tensor<4x?x8x64x2xf32>) {
    ^bb0(%in: complex<f32>, %out: f32):
      %2559 = complex.re %in : complex<f32>
      %2560 = complex.im %in : complex<f32>
      %2561 = linalg.index 4 : index
      %2562 = arith.cmpi eq, %2561, %c0 : index
      %2563 = arith.select %2562, %2559, %2560 : f32
      linalg.yield %2563 : f32
    } -> tensor<4x?x8x64x2xf32>
    %collapsed_18 = tensor.collapse_shape %94 [[0], [1], [2], [3, 4]] : tensor<4x?x8x64x2xf32> into tensor<4x?x8x128xf32>
    %95 = tensor.empty(%69) : tensor<4x?x32x128xf16>
    %96 = linalg.generic {indexing_maps = [affine_map<(d0, d1, d2, d3) -> (d0, d1, d2, d3)>, affine_map<(d0, d1, d2, d3) -> (d0, d1, d2, d3)>], iterator_types = ["parallel", "parallel", "parallel", "parallel"]} ins(%collapsed_17 : tensor<4x?x32x128xf32>) outs(%95 : tensor<4x?x32x128xf16>) {
    ^bb0(%in: f32, %out: f16):
      %2559 = arith.truncf %in : f32 to f16
      linalg.yield %2559 : f16
    } -> tensor<4x?x32x128xf16>
    %97 = tensor.empty(%69) : tensor<4x?x8x128xf16>
    %98 = linalg.generic {indexing_maps = [affine_map<(d0, d1, d2, d3) -> (d0, d1, d2, d3)>, affine_map<(d0, d1, d2, d3) -> (d0, d1, d2, d3)>], iterator_types = ["parallel", "parallel", "parallel", "parallel"]} ins(%collapsed_18 : tensor<4x?x8x128xf32>) outs(%97 : tensor<4x?x8x128xf16>) {
    ^bb0(%in: f32, %out: f16):
      %2559 = arith.truncf %in : f32 to f16
      linalg.yield %2559 : f16
    } -> tensor<4x?x8x128xf16>
    %dim_19 = tensor.dim %6, %c0 : tensor<?x1048576xf16>
    %expanded_20 = tensor.expand_shape %6 [[0], [1, 2, 3, 4, 5]] output_shape [%dim_19, 32, 2, 16, 8, 128] : tensor<?x1048576xf16> into tensor<?x32x2x16x8x128xf16>
    %collapsed_21 = tensor.collapse_shape %expanded_20 [[0, 1, 2], [3], [4], [5]] : tensor<?x32x2x16x8x128xf16> into tensor<?x16x8x128xf16>
    %dim_22 = tensor.dim %4, %c1 : tensor<4x?xi64>
    %99 = tensor.empty(%dim_22) : tensor<4x?xi64>
    %100 = linalg.generic {indexing_maps = [affine_map<(d0, d1) -> (d0, d1)>, affine_map<(d0, d1) -> (d0, d1)>], iterator_types = ["parallel", "parallel"]} ins(%4 : tensor<4x?xi64>) outs(%99 : tensor<4x?xi64>) {
    ^bb0(%in: i64, %out: i64):
      %2559 = arith.muli %in, %c64_i64 : i64
      linalg.yield %2559 : i64
    } -> tensor<4x?xi64>
    %101 = arith.divui %69, %c16 : index
    %expanded_23 = tensor.expand_shape %98 [[0], [1, 2], [3], [4]] output_shape [4, %101, 16, 8, 128] : tensor<4x?x8x128xf16> into tensor<4x?x16x8x128xf16>
    %collapsed_24 = tensor.collapse_shape %100 [[0, 1]] : tensor<4x?xi64> into tensor<?xi64>
    %collapsed_25 = tensor.collapse_shape %expanded_23 [[0, 1], [2], [3], [4]] : tensor<4x?x16x8x128xf16> into tensor<?x16x8x128xf16>
    %102 = affine.apply affine_map<()[s0] -> (s0 * 4)>()[%dim_22]
    %expanded_26 = tensor.expand_shape %collapsed_24 [[0, 1]] output_shape [%102, 1] : tensor<?xi64> into tensor<?x1xi64>
    %103 = affine.apply affine_map<()[s0] -> ((s0 floordiv 16) * 4)>()[%69]
    %expanded_27 = tensor.expand_shape %collapsed_25 [[0], [1, 2], [3], [4]] output_shape [%103, 1, 16, 8, 128] : tensor<?x16x8x128xf16> into tensor<?x1x16x8x128xf16>
    %104 = tensor.empty(%102) : tensor<?x1xi32>
    %105 = linalg.generic {indexing_maps = [affine_map<(d0, d1) -> (d0, 0)>, affine_map<(d0, d1) -> (d0, d1)>], iterator_types = ["parallel", "parallel"]} ins(%expanded_26 : tensor<?x1xi64>) outs(%104 : tensor<?x1xi32>) {
    ^bb0(%in: i64, %out: i32):
      %2559 = arith.trunci %in : i64 to i32
      linalg.yield %2559 : i32
    } -> tensor<?x1xi32>
    %106 = iree_linalg_ext.scatter dimension_map = [0] unique_indices(false) ins(%expanded_27, %105 : tensor<?x1x16x8x128xf16>, tensor<?x1xi32>) outs(%collapsed_21 : tensor<?x16x8x128xf16>) {
    ^bb0(%arg6: f16, %arg7: f16):
      iree_linalg_ext.yield %arg6 : f16
    } -> tensor<?x16x8x128xf16>
    %107 = linalg.generic {indexing_maps = [affine_map<(d0, d1) -> (d0, d1)>, affine_map<(d0, d1) -> (d0, d1)>], iterator_types = ["parallel", "parallel"]} ins(%100 : tensor<4x?xi64>) outs(%99 : tensor<4x?xi64>) {
    ^bb0(%in: i64, %out: i64):
      %2559 = arith.addi %in, %c1_i64 : i64
      linalg.yield %2559 : i64
    } -> tensor<4x?xi64>
    %collapsed_28 = tensor.collapse_shape %107 [[0, 1]] : tensor<4x?xi64> into tensor<?xi64>
    %expanded_29 = tensor.expand_shape %collapsed_28 [[0, 1]] output_shape [%102, 1] : tensor<?xi64> into tensor<?x1xi64>
    %108 = affine.apply affine_map<()[s0] -> (s0 floordiv 4)>()[%dim]
    %expanded_30 = tensor.expand_shape %64 [[0, 1, 2], [3, 4]] output_shape [%108, 1, 16, 8, 128] : tensor<?x1024xf16> into tensor<?x1x16x8x128xf16>
    %109 = linalg.generic {indexing_maps = [affine_map<(d0, d1) -> (d0, 0)>, affine_map<(d0, d1) -> (d0, d1)>], iterator_types = ["parallel", "parallel"]} ins(%expanded_29 : tensor<?x1xi64>) outs(%104 : tensor<?x1xi32>) {
    ^bb0(%in: i64, %out: i32):
      %2559 = arith.trunci %in : i64 to i32
      linalg.yield %2559 : i32
    } -> tensor<?x1xi32>
    %110 = iree_linalg_ext.scatter dimension_map = [0] unique_indices(false) ins(%expanded_30, %109 : tensor<?x1x16x8x128xf16>, tensor<?x1xi32>) outs(%106 : tensor<?x16x8x128xf16>) {
    ^bb0(%arg6: f16, %arg7: f16):
      iree_linalg_ext.yield %arg6 : f16
    } -> tensor<?x16x8x128xf16>
    %expanded_31 = tensor.expand_shape %98 [[0], [1], [2], [3, 4]] output_shape [4, %69, 8, 1, 128] : tensor<4x?x8x128xf16> into tensor<4x?x8x1x128xf16>
    %111 = tensor.empty(%69) : tensor<4x?x8x4x128xf16>
    %112 = linalg.generic {indexing_maps = [affine_map<(d0, d1, d2, d3, d4) -> (d0, d1, d2, 0, d4)>, affine_map<(d0, d1, d2, d3, d4) -> (d0, d1, d2, d3, d4)>], iterator_types = ["parallel", "parallel", "parallel", "parallel", "parallel"]} ins(%expanded_31 : tensor<4x?x8x1x128xf16>) outs(%111 : tensor<4x?x8x4x128xf16>) {
    ^bb0(%in: f16, %out: f16):
      linalg.yield %in : f16
    } -> tensor<4x?x8x4x128xf16>
    %collapsed_32 = tensor.collapse_shape %112 [[0], [1], [2, 3], [4]] : tensor<4x?x8x4x128xf16> into tensor<4x?x32x128xf16>
    %expanded_33 = tensor.expand_shape %64 [[0, 1], [2, 3, 4]] output_shape [4, %dim, 8, 1, 128] : tensor<?x1024xf16> into tensor<4x?x8x1x128xf16>
    %113 = linalg.generic {indexing_maps = [affine_map<(d0, d1, d2, d3, d4) -> (d0, d1, d2, 0, d4)>, affine_map<(d0, d1, d2, d3, d4) -> (d0, d1, d2, d3, d4)>], iterator_types = ["parallel", "parallel", "parallel", "parallel", "parallel"]} ins(%expanded_33 : tensor<4x?x8x1x128xf16>) outs(%111 : tensor<4x?x8x4x128xf16>) {
    ^bb0(%in: f16, %out: f16):
      linalg.yield %in : f16
    } -> tensor<4x?x8x4x128xf16>
    %collapsed_34 = tensor.collapse_shape %113 [[0], [1], [2, 3], [4]] : tensor<4x?x8x4x128xf16> into tensor<4x?x32x128xf16>
    %114 = tensor.empty(%69) : tensor<4x32x?x128xf16>
    %115 = linalg.generic {indexing_maps = [affine_map<(d0, d1, d2, d3) -> (d0, d1, d2, d3)>, affine_map<(d0, d1, d2, d3) -> (d0, d2, d1, d3)>], iterator_types = ["parallel", "parallel", "parallel", "parallel"]} ins(%96 : tensor<4x?x32x128xf16>) outs(%114 : tensor<4x32x?x128xf16>) {
    ^bb0(%in: f16, %out: f16):
      linalg.yield %in : f16
    } -> tensor<4x32x?x128xf16>
    %116 = linalg.generic {indexing_maps = [affine_map<(d0, d1, d2, d3) -> (d0, d1, d2, d3)>, affine_map<(d0, d1, d2, d3) -> (d0, d2, d1, d3)>], iterator_types = ["parallel", "parallel", "parallel", "parallel"]} ins(%collapsed_32 : tensor<4x?x32x128xf16>) outs(%114 : tensor<4x32x?x128xf16>) {
    ^bb0(%in: f16, %out: f16):
      linalg.yield %in : f16
    } -> tensor<4x32x?x128xf16>
    %117 = linalg.generic {indexing_maps = [affine_map<(d0, d1, d2, d3) -> (d0, d1, d2, d3)>, affine_map<(d0, d1, d2, d3) -> (d0, d2, d1, d3)>], iterator_types = ["parallel", "parallel", "parallel", "parallel"]} ins(%collapsed_34 : tensor<4x?x32x128xf16>) outs(%114 : tensor<4x32x?x128xf16>) {
    ^bb0(%in: f16, %out: f16):
      linalg.yield %in : f16
    } -> tensor<4x32x?x128xf16>
    %118 = tensor.empty(%69) : tensor<4x32x128x?xf16>
    %119 = linalg.generic {indexing_maps = [affine_map<(d0, d1, d2, d3) -> (d0, d1, d2, d3)>, affine_map<(d0, d1, d2, d3) -> (d0, d1, d3, d2)>], iterator_types = ["parallel", "parallel", "parallel", "parallel"]} ins(%116 : tensor<4x32x?x128xf16>) outs(%118 : tensor<4x32x128x?xf16>) {
    ^bb0(%in: f16, %out: f16):
      linalg.yield %in : f16
    } -> tensor<4x32x128x?xf16>
    %collapsed_35 = tensor.collapse_shape %115 [[0, 1], [2], [3]] : tensor<4x32x?x128xf16> into tensor<128x?x128xf16>
    %collapsed_36 = tensor.collapse_shape %119 [[0, 1], [2], [3]] : tensor<4x32x128x?xf16> into tensor<128x128x?xf16>
    %120 = tensor.empty(%69, %69) : tensor<128x?x?xf16>
    %121 = linalg.fill ins(%cst_2 : f16) outs(%120 : tensor<128x?x?xf16>) -> tensor<128x?x?xf16>
    %122 = linalg.batch_matmul ins(%collapsed_35, %collapsed_36 : tensor<128x?x128xf16>, tensor<128x128x?xf16>) outs(%121 : tensor<128x?x?xf16>) -> tensor<128x?x?xf16>
    %from_elements_37 = tensor.from_elements %c4_i64, %c32_i64, %65, %65 : tensor<4xi64>
    %reshape_38 = tensor.reshape %122(%from_elements_37) : (tensor<128x?x?xf16>, tensor<4xi64>) -> tensor<4x32x?x?xf16>
    %123 = tensor.empty(%69, %69) : tensor<4x32x?x?xf16>
    %124 = linalg.generic {indexing_maps = [affine_map<(d0, d1, d2, d3) -> (d0, d1, d2, d3)>, affine_map<(d0, d1, d2, d3) -> (d0, d1, d2, d3)>], iterator_types = ["parallel", "parallel", "parallel", "parallel"]} ins(%reshape_38 : tensor<4x32x?x?xf16>) outs(%123 : tensor<4x32x?x?xf16>) {
    ^bb0(%in: f16, %out: f16):
      %2559 = arith.truncf %cst_5 : f32 to f16
      %2560 = arith.divf %in, %2559 : f16
      linalg.yield %2560 : f16
    } -> tensor<4x32x?x?xf16>
    %125 = linalg.generic {indexing_maps = [affine_map<(d0, d1, d2, d3) -> (d0, d1, d2, d3)>, affine_map<(d0, d1, d2, d3) -> (d0, 0, d2, d3)>, affine_map<(d0, d1, d2, d3) -> (d0, d1, d2, d3)>], iterator_types = ["parallel", "parallel", "parallel", "parallel"]} ins(%124, %32 : tensor<4x32x?x?xf16>, tensor<4x1x?x?xf16>) outs(%123 : tensor<4x32x?x?xf16>) {
    ^bb0(%in: f16, %in_1081: f16, %out: f16):
      %2559 = arith.addf %in, %in_1081 : f16
      linalg.yield %2559 : f16
    } -> tensor<4x32x?x?xf16>
    %126 = tensor.empty(%69, %69) : tensor<4x32x?x?xf32>
    %127 = linalg.generic {indexing_maps = [affine_map<(d0, d1, d2, d3) -> (d0, d1, d2, d3)>, affine_map<(d0, d1, d2, d3) -> (d0, d1, d2, d3)>], iterator_types = ["parallel", "parallel", "parallel", "parallel"]} ins(%125 : tensor<4x32x?x?xf16>) outs(%126 : tensor<4x32x?x?xf32>) {
    ^bb0(%in: f16, %out: f32):
      %2559 = arith.extf %in : f16 to f32
      linalg.yield %2559 : f32
    } -> tensor<4x32x?x?xf32>
    %128 = tensor.empty(%69) : tensor<4x32x?xi64>
    %129 = linalg.fill ins(%c0_i64 : i64) outs(%128 : tensor<4x32x?xi64>) -> tensor<4x32x?xi64>
    %130 = tensor.empty(%69) : tensor<4x32x?xf32>
    %131 = linalg.fill ins(%cst_3 : f32) outs(%130 : tensor<4x32x?xf32>) -> tensor<4x32x?xf32>
    %132:2 = linalg.generic {indexing_maps = [affine_map<(d0, d1, d2, d3) -> (d0, d1, d2, d3)>, affine_map<(d0, d1, d2, d3) -> (d0, d1, d2)>, affine_map<(d0, d1, d2, d3) -> (d0, d1, d2)>], iterator_types = ["parallel", "parallel", "parallel", "reduction"]} ins(%127 : tensor<4x32x?x?xf32>) outs(%131, %129 : tensor<4x32x?xf32>, tensor<4x32x?xi64>) {
    ^bb0(%in: f32, %out: f32, %out_1081: i64):
      %2559 = linalg.index 3 : index
      %2560 = arith.index_cast %2559 : index to i64
      %2561 = arith.maximumf %in, %out : f32
      %2562 = arith.cmpf ogt, %in, %out : f32
      %2563 = arith.select %2562, %2560, %out_1081 : i64
      linalg.yield %2561, %2563 : f32, i64
    } -> (tensor<4x32x?xf32>, tensor<4x32x?xi64>)
    %expanded_39 = tensor.expand_shape %132#0 [[0], [1], [2, 3]] output_shape [4, 32, %69, 1] : tensor<4x32x?xf32> into tensor<4x32x?x1xf32>
    %133 = linalg.generic {indexing_maps = [affine_map<(d0, d1, d2, d3) -> (d0, d1, d2, d3)>, affine_map<(d0, d1, d2, d3) -> (d0, d1, d2, 0)>, affine_map<(d0, d1, d2, d3) -> (d0, d1, d2, d3)>], iterator_types = ["parallel", "parallel", "parallel", "parallel"]} ins(%127, %expanded_39 : tensor<4x32x?x?xf32>, tensor<4x32x?x1xf32>) outs(%126 : tensor<4x32x?x?xf32>) {
    ^bb0(%in: f32, %in_1081: f32, %out: f32):
      %2559 = arith.subf %in, %in_1081 : f32
      linalg.yield %2559 : f32
    } -> tensor<4x32x?x?xf32>
    %134 = linalg.generic {indexing_maps = [affine_map<(d0, d1, d2, d3) -> (d0, d1, d2, d3)>, affine_map<(d0, d1, d2, d3) -> (d0, d1, d2, d3)>], iterator_types = ["parallel", "parallel", "parallel", "parallel"]} ins(%133 : tensor<4x32x?x?xf32>) outs(%126 : tensor<4x32x?x?xf32>) {
    ^bb0(%in: f32, %out: f32):
      %2559 = math.exp %in : f32
      linalg.yield %2559 : f32
    } -> tensor<4x32x?x?xf32>
    %135 = tensor.empty(%69) : tensor<4x32x?x1xf32>
    %136 = linalg.fill ins(%cst_1 : f32) outs(%135 : tensor<4x32x?x1xf32>) -> tensor<4x32x?x1xf32>
    %137 = linalg.generic {indexing_maps = [affine_map<(d0, d1, d2, d3) -> (d0, d1, d2, d3)>, affine_map<(d0, d1, d2, d3) -> (d0, d1, d2, 0)>], iterator_types = ["parallel", "parallel", "parallel", "reduction"]} ins(%134 : tensor<4x32x?x?xf32>) outs(%136 : tensor<4x32x?x1xf32>) {
    ^bb0(%in: f32, %out: f32):
      %2559 = arith.addf %in, %out : f32
      linalg.yield %2559 : f32
    } -> tensor<4x32x?x1xf32>
    %138 = linalg.generic {indexing_maps = [affine_map<(d0, d1, d2, d3) -> (d0, d1, d2, d3)>, affine_map<(d0, d1, d2, d3) -> (d0, d1, d2, 0)>, affine_map<(d0, d1, d2, d3) -> (d0, d1, d2, d3)>], iterator_types = ["parallel", "parallel", "parallel", "parallel"]} ins(%134, %137 : tensor<4x32x?x?xf32>, tensor<4x32x?x1xf32>) outs(%126 : tensor<4x32x?x?xf32>) {
    ^bb0(%in: f32, %in_1081: f32, %out: f32):
      %2559 = arith.divf %in, %in_1081 : f32
      linalg.yield %2559 : f32
    } -> tensor<4x32x?x?xf32>
    %139 = linalg.generic {indexing_maps = [affine_map<(d0, d1, d2, d3) -> (d0, d1, d2, d3)>, affine_map<(d0, d1, d2, d3) -> (d0, d1, d2, d3)>], iterator_types = ["parallel", "parallel", "parallel", "parallel"]} ins(%138 : tensor<4x32x?x?xf32>) outs(%123 : tensor<4x32x?x?xf16>) {
    ^bb0(%in: f32, %out: f16):
      %2559 = arith.truncf %in : f32 to f16
      linalg.yield %2559 : f16
    } -> tensor<4x32x?x?xf16>
    %from_elements_40 = tensor.from_elements %c128_i64, %65, %65 : tensor<3xi64>
    %reshape_41 = tensor.reshape %139(%from_elements_40) : (tensor<4x32x?x?xf16>, tensor<3xi64>) -> tensor<128x?x?xf16>
    %collapsed_42 = tensor.collapse_shape %117 [[0, 1], [2], [3]] : tensor<4x32x?x128xf16> into tensor<128x?x128xf16>
    %140 = tensor.empty(%69) : tensor<128x?x128xf16>
    %141 = linalg.fill ins(%cst_2 : f16) outs(%140 : tensor<128x?x128xf16>) -> tensor<128x?x128xf16>
    %142 = linalg.batch_matmul ins(%reshape_41, %collapsed_42 : tensor<128x?x?xf16>, tensor<128x?x128xf16>) outs(%141 : tensor<128x?x128xf16>) -> tensor<128x?x128xf16>
    %expanded_43 = tensor.expand_shape %142 [[0, 1], [2], [3]] output_shape [4, 32, %69, 128] : tensor<128x?x128xf16> into tensor<4x32x?x128xf16>
    %143 = linalg.generic {indexing_maps = [affine_map<(d0, d1, d2, d3) -> (d0, d1, d2, d3)>, affine_map<(d0, d1, d2, d3) -> (d0, d2, d1, d3)>], iterator_types = ["parallel", "parallel", "parallel", "parallel"]} ins(%expanded_43 : tensor<4x32x?x128xf16>) outs(%95 : tensor<4x?x32x128xf16>) {
    ^bb0(%in: f16, %out: f16):
      linalg.yield %in : f16
    } -> tensor<4x?x32x128xf16>
    %144 = linalg.generic {indexing_maps = [affine_map<(d0, d1) -> (d0, d1)>, affine_map<(d0, d1) -> (d1, d0)>], iterator_types = ["parallel", "parallel"]} ins(%__auto.blk.0.attn_output.weight : tensor<4096x4096xf16>) outs(%47 : tensor<4096x4096xf16>) {
    ^bb0(%in: f16, %out: f16):
      linalg.yield %in : f16
    } -> tensor<4096x4096xf16>
    %collapsed_44 = tensor.collapse_shape %143 [[0, 1], [2, 3]] : tensor<4x?x32x128xf16> into tensor<?x4096xf16>
    %145 = affine.apply affine_map<()[s0] -> (s0 * 4)>()[%69]
    %146 = tensor.empty(%145) : tensor<?x4096xf32>
    %147 = linalg.fill ins(%cst_1 : f32) outs(%146 : tensor<?x4096xf32>) -> tensor<?x4096xf32>
    %148 = linalg.matmul ins(%collapsed_44, %144 : tensor<?x4096xf16>, tensor<4096x4096xf16>) outs(%147 : tensor<?x4096xf32>) -> tensor<?x4096xf32>
    %149 = tensor.empty(%145) : tensor<?x4096xf16>
    %150 = linalg.generic {indexing_maps = [affine_map<(d0, d1) -> (d0, d1)>, affine_map<(d0, d1) -> (d0, d1)>], iterator_types = ["parallel", "parallel"]} ins(%148 : tensor<?x4096xf32>) outs(%149 : tensor<?x4096xf16>) {
    ^bb0(%in: f32, %out: f16):
      %2559 = arith.truncf %in : f32 to f16
      linalg.yield %2559 : f16
    } -> tensor<?x4096xf16>
    %151 = arith.divui %145, %c4 : index
    %expanded_45 = tensor.expand_shape %150 [[0, 1], [2]] output_shape [4, %151, 4096] : tensor<?x4096xf16> into tensor<4x?x4096xf16>
    %152 = linalg.generic {indexing_maps = [affine_map<(d0, d1, d2) -> (d0, d1, d2)>, affine_map<(d0, d1, d2) -> (d0, d1, d2)>, affine_map<(d0, d1, d2) -> (d0, d1, d2)>], iterator_types = ["parallel", "parallel", "parallel"]} ins(%34, %expanded_45 : tensor<4x?x4096xf16>, tensor<4x?x4096xf16>) outs(%33 : tensor<4x?x4096xf16>) {
    ^bb0(%in: f16, %in_1081: f16, %out: f16):
      %2559 = arith.addf %in, %in_1081 : f16
      linalg.yield %2559 : f16
    } -> tensor<4x?x4096xf16>
    %153 = linalg.generic {indexing_maps = [affine_map<(d0, d1, d2) -> (d0, d1, d2)>, affine_map<(d0, d1, d2) -> (d0, d1, d2)>], iterator_types = ["parallel", "parallel", "parallel"]} ins(%152 : tensor<4x?x4096xf16>) outs(%35 : tensor<4x?x4096xf32>) {
    ^bb0(%in: f16, %out: f32):
      %2559 = arith.extf %in : f16 to f32
      linalg.yield %2559 : f32
    } -> tensor<4x?x4096xf32>
    %154 = linalg.generic {indexing_maps = [affine_map<(d0, d1, d2) -> (d0, d1, d2)>, affine_map<(d0, d1, d2) -> (d0, d1, d2)>], iterator_types = ["parallel", "parallel", "parallel"]} ins(%153 : tensor<4x?x4096xf32>) outs(%35 : tensor<4x?x4096xf32>) {
    ^bb0(%in: f32, %out: f32):
      %2559 = math.powf %in, %cst_6 : f32
      linalg.yield %2559 : f32
    } -> tensor<4x?x4096xf32>
    %155 = linalg.generic {indexing_maps = [affine_map<(d0, d1, d2) -> (d0, d1, d2)>, affine_map<(d0, d1, d2) -> (d0, d1, 0)>], iterator_types = ["parallel", "parallel", "reduction"]} ins(%154 : tensor<4x?x4096xf32>) outs(%39 : tensor<4x?x1xf32>) {
    ^bb0(%in: f32, %out: f32):
      %2559 = arith.addf %in, %out : f32
      linalg.yield %2559 : f32
    } -> tensor<4x?x1xf32>
    %156 = linalg.generic {indexing_maps = [affine_map<(d0, d1, d2) -> (d0, d1, 0)>, affine_map<(d0, d1, d2) -> (d0, d1, d2)>], iterator_types = ["parallel", "parallel", "parallel"]} ins(%155 : tensor<4x?x1xf32>) outs(%38 : tensor<4x?x1xf32>) {
    ^bb0(%in: f32, %out: f32):
      %2559 = arith.divf %in, %cst_7 : f32
      linalg.yield %2559 : f32
    } -> tensor<4x?x1xf32>
    %157 = linalg.generic {indexing_maps = [affine_map<(d0, d1, d2) -> (d0, d1, 0)>, affine_map<(d0, d1, d2) -> (d0, d1, d2)>], iterator_types = ["parallel", "parallel", "parallel"]} ins(%156 : tensor<4x?x1xf32>) outs(%38 : tensor<4x?x1xf32>) {
    ^bb0(%in: f32, %out: f32):
      %2559 = arith.addf %in, %cst_8 : f32
      linalg.yield %2559 : f32
    } -> tensor<4x?x1xf32>
    %158 = linalg.generic {indexing_maps = [affine_map<(d0, d1, d2) -> (d0, d1, 0)>, affine_map<(d0, d1, d2) -> (d0, d1, d2)>], iterator_types = ["parallel", "parallel", "parallel"]} ins(%157 : tensor<4x?x1xf32>) outs(%38 : tensor<4x?x1xf32>) {
    ^bb0(%in: f32, %out: f32):
      %2559 = math.rsqrt %in : f32
      linalg.yield %2559 : f32
    } -> tensor<4x?x1xf32>
    %159 = linalg.generic {indexing_maps = [affine_map<(d0, d1, d2) -> (d0, d1, d2)>, affine_map<(d0, d1, d2) -> (d0, d1, 0)>, affine_map<(d0, d1, d2) -> (d0, d1, d2)>], iterator_types = ["parallel", "parallel", "parallel"]} ins(%153, %158 : tensor<4x?x4096xf32>, tensor<4x?x1xf32>) outs(%35 : tensor<4x?x4096xf32>) {
    ^bb0(%in: f32, %in_1081: f32, %out: f32):
      %2559 = arith.mulf %in, %in_1081 : f32
      linalg.yield %2559 : f32
    } -> tensor<4x?x4096xf32>
    %160 = linalg.generic {indexing_maps = [affine_map<(d0, d1, d2) -> (d0, d1, d2)>, affine_map<(d0, d1, d2) -> (d2)>, affine_map<(d0, d1, d2) -> (d0, d1, d2)>], iterator_types = ["parallel", "parallel", "parallel"]} ins(%159, %__auto.blk.0.ffn_norm.weight : tensor<4x?x4096xf32>, tensor<4096xf32>) outs(%35 : tensor<4x?x4096xf32>) {
    ^bb0(%in: f32, %in_1081: f32, %out: f32):
      %2559 = arith.mulf %in, %in_1081 : f32
      linalg.yield %2559 : f32
    } -> tensor<4x?x4096xf32>
    %161 = linalg.generic {indexing_maps = [affine_map<(d0, d1, d2) -> (d0, d1, d2)>, affine_map<(d0, d1, d2) -> (d0, d1, d2)>], iterator_types = ["parallel", "parallel", "parallel"]} ins(%160 : tensor<4x?x4096xf32>) outs(%33 : tensor<4x?x4096xf16>) {
    ^bb0(%in: f32, %out: f16):
      %2559 = arith.truncf %in : f32 to f16
      linalg.yield %2559 : f16
    } -> tensor<4x?x4096xf16>
    %162 = tensor.empty() : tensor<4096x14336xf16>
    %163 = linalg.generic {indexing_maps = [affine_map<(d0, d1) -> (d0, d1)>, affine_map<(d0, d1) -> (d1, d0)>], iterator_types = ["parallel", "parallel"]} ins(%__auto.blk.0.ffn_gate.weight : tensor<14336x4096xf16>) outs(%162 : tensor<4096x14336xf16>) {
    ^bb0(%in: f16, %out: f16):
      linalg.yield %in : f16
    } -> tensor<4096x14336xf16>
    %collapsed_46 = tensor.collapse_shape %161 [[0, 1], [2]] : tensor<4x?x4096xf16> into tensor<?x4096xf16>
    %164 = tensor.empty(%49) : tensor<?x14336xf32>
    %165 = linalg.fill ins(%cst_1 : f32) outs(%164 : tensor<?x14336xf32>) -> tensor<?x14336xf32>
    %166 = linalg.matmul ins(%collapsed_46, %163 : tensor<?x4096xf16>, tensor<4096x14336xf16>) outs(%165 : tensor<?x14336xf32>) -> tensor<?x14336xf32>
    %167 = tensor.empty(%49) : tensor<?x14336xf16>
    %168 = linalg.generic {indexing_maps = [affine_map<(d0, d1) -> (d0, d1)>, affine_map<(d0, d1) -> (d0, d1)>], iterator_types = ["parallel", "parallel"]} ins(%166 : tensor<?x14336xf32>) outs(%167 : tensor<?x14336xf16>) {
    ^bb0(%in: f32, %out: f16):
      %2559 = arith.truncf %in : f32 to f16
      linalg.yield %2559 : f16
    } -> tensor<?x14336xf16>
    %169 = arith.divui %49, %c4 : index
    %expanded_47 = tensor.expand_shape %168 [[0, 1], [2]] output_shape [4, %169, 14336] : tensor<?x14336xf16> into tensor<4x?x14336xf16>
    %170 = tensor.empty(%dim) : tensor<4x?x14336xf16>
    %171 = linalg.generic {indexing_maps = [affine_map<(d0, d1, d2) -> (d0, d1, d2)>, affine_map<(d0, d1, d2) -> (d0, d1, d2)>], iterator_types = ["parallel", "parallel", "parallel"]} ins(%expanded_47 : tensor<4x?x14336xf16>) outs(%170 : tensor<4x?x14336xf16>) {
    ^bb0(%in: f16, %out: f16):
      %2559 = arith.negf %in : f16
      %2560 = math.exp %2559 : f16
      %2561 = arith.addf %2560, %cst_4 : f16
      %2562 = arith.divf %cst_4, %2561 : f16
      linalg.yield %2562 : f16
    } -> tensor<4x?x14336xf16>
    %172 = linalg.generic {indexing_maps = [affine_map<(d0, d1, d2) -> (d0, d1, d2)>, affine_map<(d0, d1, d2) -> (d0, d1, d2)>, affine_map<(d0, d1, d2) -> (d0, d1, d2)>], iterator_types = ["parallel", "parallel", "parallel"]} ins(%171, %expanded_47 : tensor<4x?x14336xf16>, tensor<4x?x14336xf16>) outs(%170 : tensor<4x?x14336xf16>) {
    ^bb0(%in: f16, %in_1081: f16, %out: f16):
      %2559 = arith.mulf %in, %in_1081 : f16
      linalg.yield %2559 : f16
    } -> tensor<4x?x14336xf16>
    %173 = linalg.generic {indexing_maps = [affine_map<(d0, d1) -> (d0, d1)>, affine_map<(d0, d1) -> (d1, d0)>], iterator_types = ["parallel", "parallel"]} ins(%__auto.blk.0.ffn_up.weight : tensor<14336x4096xf16>) outs(%162 : tensor<4096x14336xf16>) {
    ^bb0(%in: f16, %out: f16):
      linalg.yield %in : f16
    } -> tensor<4096x14336xf16>
    %174 = linalg.matmul ins(%collapsed_46, %173 : tensor<?x4096xf16>, tensor<4096x14336xf16>) outs(%165 : tensor<?x14336xf32>) -> tensor<?x14336xf32>
    %175 = linalg.generic {indexing_maps = [affine_map<(d0, d1) -> (d0, d1)>, affine_map<(d0, d1) -> (d0, d1)>], iterator_types = ["parallel", "parallel"]} ins(%174 : tensor<?x14336xf32>) outs(%167 : tensor<?x14336xf16>) {
    ^bb0(%in: f32, %out: f16):
      %2559 = arith.truncf %in : f32 to f16
      linalg.yield %2559 : f16
    } -> tensor<?x14336xf16>
    %expanded_48 = tensor.expand_shape %175 [[0, 1], [2]] output_shape [4, %169, 14336] : tensor<?x14336xf16> into tensor<4x?x14336xf16>
    %176 = linalg.generic {indexing_maps = [affine_map<(d0, d1, d2) -> (d0, d1, d2)>, affine_map<(d0, d1, d2) -> (d0, d1, d2)>, affine_map<(d0, d1, d2) -> (d0, d1, d2)>], iterator_types = ["parallel", "parallel", "parallel"]} ins(%172, %expanded_48 : tensor<4x?x14336xf16>, tensor<4x?x14336xf16>) outs(%170 : tensor<4x?x14336xf16>) {
    ^bb0(%in: f16, %in_1081: f16, %out: f16):
      %2559 = arith.mulf %in, %in_1081 : f16
      linalg.yield %2559 : f16
    } -> tensor<4x?x14336xf16>
    %177 = tensor.empty() : tensor<14336x4096xf16>
    %178 = linalg.generic {indexing_maps = [affine_map<(d0, d1) -> (d0, d1)>, affine_map<(d0, d1) -> (d1, d0)>], iterator_types = ["parallel", "parallel"]} ins(%__auto.blk.0.ffn_down.weight : tensor<4096x14336xf16>) outs(%177 : tensor<14336x4096xf16>) {
    ^bb0(%in: f16, %out: f16):
      linalg.yield %in : f16
    } -> tensor<14336x4096xf16>
    %collapsed_49 = tensor.collapse_shape %176 [[0, 1], [2]] : tensor<4x?x14336xf16> into tensor<?x14336xf16>
    %179 = linalg.matmul ins(%collapsed_49, %178 : tensor<?x14336xf16>, tensor<14336x4096xf16>) outs(%51 : tensor<?x4096xf32>) -> tensor<?x4096xf32>
    %180 = linalg.generic {indexing_maps = [affine_map<(d0, d1) -> (d0, d1)>, affine_map<(d0, d1) -> (d0, d1)>], iterator_types = ["parallel", "parallel"]} ins(%179 : tensor<?x4096xf32>) outs(%53 : tensor<?x4096xf16>) {
    ^bb0(%in: f32, %out: f16):
      %2559 = arith.truncf %in : f32 to f16
      linalg.yield %2559 : f16
    } -> tensor<?x4096xf16>
    %expanded_50 = tensor.expand_shape %180 [[0, 1], [2]] output_shape [4, %169, 4096] : tensor<?x4096xf16> into tensor<4x?x4096xf16>
    %181 = linalg.generic {indexing_maps = [affine_map<(d0, d1, d2) -> (d0, d1, d2)>, affine_map<(d0, d1, d2) -> (d0, d1, d2)>, affine_map<(d0, d1, d2) -> (d0, d1, d2)>], iterator_types = ["parallel", "parallel", "parallel"]} ins(%152, %expanded_50 : tensor<4x?x4096xf16>, tensor<4x?x4096xf16>) outs(%33 : tensor<4x?x4096xf16>) {
    ^bb0(%in: f16, %in_1081: f16, %out: f16):
      %2559 = arith.addf %in, %in_1081 : f16
      linalg.yield %2559 : f16
    } -> tensor<4x?x4096xf16>
    %182 = linalg.generic {indexing_maps = [affine_map<(d0, d1, d2) -> (d0, d1, d2)>, affine_map<(d0, d1, d2) -> (d0, d1, d2)>], iterator_types = ["parallel", "parallel", "parallel"]} ins(%181 : tensor<4x?x4096xf16>) outs(%35 : tensor<4x?x4096xf32>) {
    ^bb0(%in: f16, %out: f32):
      %2559 = arith.extf %in : f16 to f32
      linalg.yield %2559 : f32
    } -> tensor<4x?x4096xf32>
    %183 = linalg.generic {indexing_maps = [affine_map<(d0, d1, d2) -> (d0, d1, d2)>, affine_map<(d0, d1, d2) -> (d0, d1, d2)>], iterator_types = ["parallel", "parallel", "parallel"]} ins(%182 : tensor<4x?x4096xf32>) outs(%35 : tensor<4x?x4096xf32>) {
    ^bb0(%in: f32, %out: f32):
      %2559 = math.powf %in, %cst_6 : f32
      linalg.yield %2559 : f32
    } -> tensor<4x?x4096xf32>
    %184 = linalg.generic {indexing_maps = [affine_map<(d0, d1, d2) -> (d0, d1, d2)>, affine_map<(d0, d1, d2) -> (d0, d1, 0)>], iterator_types = ["parallel", "parallel", "reduction"]} ins(%183 : tensor<4x?x4096xf32>) outs(%39 : tensor<4x?x1xf32>) {
    ^bb0(%in: f32, %out: f32):
      %2559 = arith.addf %in, %out : f32
      linalg.yield %2559 : f32
    } -> tensor<4x?x1xf32>
    %185 = linalg.generic {indexing_maps = [affine_map<(d0, d1, d2) -> (d0, d1, 0)>, affine_map<(d0, d1, d2) -> (d0, d1, d2)>], iterator_types = ["parallel", "parallel", "parallel"]} ins(%184 : tensor<4x?x1xf32>) outs(%38 : tensor<4x?x1xf32>) {
    ^bb0(%in: f32, %out: f32):
      %2559 = arith.divf %in, %cst_7 : f32
      linalg.yield %2559 : f32
    } -> tensor<4x?x1xf32>
    %186 = linalg.generic {indexing_maps = [affine_map<(d0, d1, d2) -> (d0, d1, 0)>, affine_map<(d0, d1, d2) -> (d0, d1, d2)>], iterator_types = ["parallel", "parallel", "parallel"]} ins(%185 : tensor<4x?x1xf32>) outs(%38 : tensor<4x?x1xf32>) {
    ^bb0(%in: f32, %out: f32):
      %2559 = arith.addf %in, %cst_8 : f32
      linalg.yield %2559 : f32
    } -> tensor<4x?x1xf32>
    %187 = linalg.generic {indexing_maps = [affine_map<(d0, d1, d2) -> (d0, d1, 0)>, affine_map<(d0, d1, d2) -> (d0, d1, d2)>], iterator_types = ["parallel", "parallel", "parallel"]} ins(%186 : tensor<4x?x1xf32>) outs(%38 : tensor<4x?x1xf32>) {
    ^bb0(%in: f32, %out: f32):
      %2559 = math.rsqrt %in : f32
      linalg.yield %2559 : f32
    } -> tensor<4x?x1xf32>
    %188 = linalg.generic {indexing_maps = [affine_map<(d0, d1, d2) -> (d0, d1, d2)>, affine_map<(d0, d1, d2) -> (d0, d1, 0)>, affine_map<(d0, d1, d2) -> (d0, d1, d2)>], iterator_types = ["parallel", "parallel", "parallel"]} ins(%182, %187 : tensor<4x?x4096xf32>, tensor<4x?x1xf32>) outs(%35 : tensor<4x?x4096xf32>) {
    ^bb0(%in: f32, %in_1081: f32, %out: f32):
      %2559 = arith.mulf %in, %in_1081 : f32
      linalg.yield %2559 : f32
    } -> tensor<4x?x4096xf32>
    %189 = linalg.generic {indexing_maps = [affine_map<(d0, d1, d2) -> (d0, d1, d2)>, affine_map<(d0, d1, d2) -> (d2)>, affine_map<(d0, d1, d2) -> (d0, d1, d2)>], iterator_types = ["parallel", "parallel", "parallel"]} ins(%188, %__auto.blk.1.attn_norm.weight : tensor<4x?x4096xf32>, tensor<4096xf32>) outs(%35 : tensor<4x?x4096xf32>) {
    ^bb0(%in: f32, %in_1081: f32, %out: f32):
      %2559 = arith.mulf %in, %in_1081 : f32
      linalg.yield %2559 : f32
    } -> tensor<4x?x4096xf32>
    %190 = linalg.generic {indexing_maps = [affine_map<(d0, d1, d2) -> (d0, d1, d2)>, affine_map<(d0, d1, d2) -> (d0, d1, d2)>], iterator_types = ["parallel", "parallel", "parallel"]} ins(%189 : tensor<4x?x4096xf32>) outs(%33 : tensor<4x?x4096xf16>) {
    ^bb0(%in: f32, %out: f16):
      %2559 = arith.truncf %in : f32 to f16
      linalg.yield %2559 : f16
    } -> tensor<4x?x4096xf16>
    %191 = linalg.generic {indexing_maps = [affine_map<(d0, d1) -> (d0, d1)>, affine_map<(d0, d1) -> (d1, d0)>], iterator_types = ["parallel", "parallel"]} ins(%__auto.blk.1.attn_q.weight : tensor<4096x4096xf16>) outs(%47 : tensor<4096x4096xf16>) {
    ^bb0(%in: f16, %out: f16):
      linalg.yield %in : f16
    } -> tensor<4096x4096xf16>
    %collapsed_51 = tensor.collapse_shape %190 [[0, 1], [2]] : tensor<4x?x4096xf16> into tensor<?x4096xf16>
    %192 = linalg.matmul ins(%collapsed_51, %191 : tensor<?x4096xf16>, tensor<4096x4096xf16>) outs(%51 : tensor<?x4096xf32>) -> tensor<?x4096xf32>
    %193 = linalg.generic {indexing_maps = [affine_map<(d0, d1) -> (d0, d1)>, affine_map<(d0, d1) -> (d0, d1)>], iterator_types = ["parallel", "parallel"]} ins(%192 : tensor<?x4096xf32>) outs(%53 : tensor<?x4096xf16>) {
    ^bb0(%in: f32, %out: f16):
      %2559 = arith.truncf %in : f32 to f16
      linalg.yield %2559 : f16
    } -> tensor<?x4096xf16>
    %194 = linalg.generic {indexing_maps = [affine_map<(d0, d1) -> (d0, d1)>, affine_map<(d0, d1) -> (d1, d0)>], iterator_types = ["parallel", "parallel"]} ins(%__auto.blk.1.attn_k.weight : tensor<1024x4096xf16>) outs(%55 : tensor<4096x1024xf16>) {
    ^bb0(%in: f16, %out: f16):
      linalg.yield %in : f16
    } -> tensor<4096x1024xf16>
    %195 = linalg.matmul ins(%collapsed_51, %194 : tensor<?x4096xf16>, tensor<4096x1024xf16>) outs(%58 : tensor<?x1024xf32>) -> tensor<?x1024xf32>
    %196 = linalg.generic {indexing_maps = [affine_map<(d0, d1) -> (d0, d1)>, affine_map<(d0, d1) -> (d0, d1)>], iterator_types = ["parallel", "parallel"]} ins(%195 : tensor<?x1024xf32>) outs(%60 : tensor<?x1024xf16>) {
    ^bb0(%in: f32, %out: f16):
      %2559 = arith.truncf %in : f32 to f16
      linalg.yield %2559 : f16
    } -> tensor<?x1024xf16>
    %197 = linalg.generic {indexing_maps = [affine_map<(d0, d1) -> (d0, d1)>, affine_map<(d0, d1) -> (d1, d0)>], iterator_types = ["parallel", "parallel"]} ins(%__auto.blk.1.attn_v.weight : tensor<1024x4096xf16>) outs(%55 : tensor<4096x1024xf16>) {
    ^bb0(%in: f16, %out: f16):
      linalg.yield %in : f16
    } -> tensor<4096x1024xf16>
    %198 = linalg.matmul ins(%collapsed_51, %197 : tensor<?x4096xf16>, tensor<4096x1024xf16>) outs(%58 : tensor<?x1024xf32>) -> tensor<?x1024xf32>
    %199 = linalg.generic {indexing_maps = [affine_map<(d0, d1) -> (d0, d1)>, affine_map<(d0, d1) -> (d0, d1)>], iterator_types = ["parallel", "parallel"]} ins(%198 : tensor<?x1024xf32>) outs(%60 : tensor<?x1024xf16>) {
    ^bb0(%in: f32, %out: f16):
      %2559 = arith.truncf %in : f32 to f16
      linalg.yield %2559 : f16
    } -> tensor<?x1024xf16>
    %expanded_52 = tensor.expand_shape %193 [[0, 1], [2, 3]] output_shape [4, %dim, 32, 128] : tensor<?x4096xf16> into tensor<4x?x32x128xf16>
    %expanded_53 = tensor.expand_shape %196 [[0, 1], [2, 3]] output_shape [4, %dim, 8, 128] : tensor<?x1024xf16> into tensor<4x?x8x128xf16>
    %reshape_54 = tensor.reshape %expanded_52(%from_elements) : (tensor<4x?x32x128xf16>, tensor<5xi64>) -> tensor<4x?x32x64x2xf16>
    %200 = linalg.generic {indexing_maps = [affine_map<(d0, d1, d2, d3) -> (d0, d1, d2, d3)>], iterator_types = ["parallel", "parallel", "parallel", "parallel"]} outs(%70 : tensor<4x?x32x64xcomplex<f16>>) {
    ^bb0(%out: complex<f16>):
      %2559 = linalg.index 0 : index
      %2560 = linalg.index 1 : index
      %2561 = linalg.index 2 : index
      %2562 = linalg.index 3 : index
      %extracted = tensor.extract %reshape_54[%2559, %2560, %2561, %2562, %c0] : tensor<4x?x32x64x2xf16>
      %extracted_1081 = tensor.extract %reshape_54[%2559, %2560, %2561, %2562, %c1] : tensor<4x?x32x64x2xf16>
      %2563 = complex.create %extracted, %extracted_1081 : complex<f16>
      linalg.yield %2563 : complex<f16>
    } -> tensor<4x?x32x64xcomplex<f16>>
    %reshape_55 = tensor.reshape %expanded_53(%from_elements_13) : (tensor<4x?x8x128xf16>, tensor<5xi64>) -> tensor<4x?x8x64x2xf16>
    %201 = linalg.generic {indexing_maps = [affine_map<(d0, d1, d2, d3) -> (d0, d1, d2, d3)>], iterator_types = ["parallel", "parallel", "parallel", "parallel"]} outs(%75 : tensor<4x?x8x64xcomplex<f16>>) {
    ^bb0(%out: complex<f16>):
      %2559 = linalg.index 0 : index
      %2560 = linalg.index 1 : index
      %2561 = linalg.index 2 : index
      %2562 = linalg.index 3 : index
      %extracted = tensor.extract %reshape_55[%2559, %2560, %2561, %2562, %c0] : tensor<4x?x8x64x2xf16>
      %extracted_1081 = tensor.extract %reshape_55[%2559, %2560, %2561, %2562, %c1] : tensor<4x?x8x64x2xf16>
      %2563 = complex.create %extracted, %extracted_1081 : complex<f16>
      linalg.yield %2563 : complex<f16>
    } -> tensor<4x?x8x64xcomplex<f16>>
    %202 = linalg.generic {indexing_maps = [affine_map<(d0, d1, d2, d3) -> (d0, d1, d2, d3)>, affine_map<(d0, d1, d2, d3) -> (0, d1, 0, d3)>, affine_map<(d0, d1, d2, d3) -> (d0, d1, d2, d3)>], iterator_types = ["parallel", "parallel", "parallel", "parallel"]} ins(%200, %expanded_16 : tensor<4x?x32x64xcomplex<f16>>, tensor<1x?x1x64xcomplex<f32>>) outs(%87 : tensor<4x?x32x64xcomplex<f32>>) {
    ^bb0(%in: complex<f16>, %in_1081: complex<f32>, %out: complex<f32>):
      %2559 = complex.re %in : complex<f16>
      %2560 = complex.im %in : complex<f16>
      %2561 = arith.extf %2559 : f16 to f32
      %2562 = arith.extf %2560 : f16 to f32
      %2563 = complex.create %2561, %2562 : complex<f32>
      %2564 = complex.mul %2563, %in_1081 : complex<f32>
      linalg.yield %2564 : complex<f32>
    } -> tensor<4x?x32x64xcomplex<f32>>
    %203 = linalg.generic {indexing_maps = [affine_map<(d0, d1, d2, d3, d4) -> (d0, d1, d2, d3)>, affine_map<(d0, d1, d2, d3, d4) -> (d0, d1, d2, d3, d4)>], iterator_types = ["parallel", "parallel", "parallel", "parallel", "parallel"]} ins(%202 : tensor<4x?x32x64xcomplex<f32>>) outs(%89 : tensor<4x?x32x64x2xf32>) {
    ^bb0(%in: complex<f32>, %out: f32):
      %2559 = complex.re %in : complex<f32>
      %2560 = complex.im %in : complex<f32>
      %2561 = linalg.index 4 : index
      %2562 = arith.cmpi eq, %2561, %c0 : index
      %2563 = arith.select %2562, %2559, %2560 : f32
      linalg.yield %2563 : f32
    } -> tensor<4x?x32x64x2xf32>
    %collapsed_56 = tensor.collapse_shape %203 [[0], [1], [2], [3, 4]] : tensor<4x?x32x64x2xf32> into tensor<4x?x32x128xf32>
    %204 = linalg.generic {indexing_maps = [affine_map<(d0, d1, d2, d3) -> (d0, d1, d2, d3)>, affine_map<(d0, d1, d2, d3) -> (0, d1, 0, d3)>, affine_map<(d0, d1, d2, d3) -> (d0, d1, d2, d3)>], iterator_types = ["parallel", "parallel", "parallel", "parallel"]} ins(%201, %expanded_16 : tensor<4x?x8x64xcomplex<f16>>, tensor<1x?x1x64xcomplex<f32>>) outs(%91 : tensor<4x?x8x64xcomplex<f32>>) {
    ^bb0(%in: complex<f16>, %in_1081: complex<f32>, %out: complex<f32>):
      %2559 = complex.re %in : complex<f16>
      %2560 = complex.im %in : complex<f16>
      %2561 = arith.extf %2559 : f16 to f32
      %2562 = arith.extf %2560 : f16 to f32
      %2563 = complex.create %2561, %2562 : complex<f32>
      %2564 = complex.mul %2563, %in_1081 : complex<f32>
      linalg.yield %2564 : complex<f32>
    } -> tensor<4x?x8x64xcomplex<f32>>
    %205 = linalg.generic {indexing_maps = [affine_map<(d0, d1, d2, d3, d4) -> (d0, d1, d2, d3)>, affine_map<(d0, d1, d2, d3, d4) -> (d0, d1, d2, d3, d4)>], iterator_types = ["parallel", "parallel", "parallel", "parallel", "parallel"]} ins(%204 : tensor<4x?x8x64xcomplex<f32>>) outs(%93 : tensor<4x?x8x64x2xf32>) {
    ^bb0(%in: complex<f32>, %out: f32):
      %2559 = complex.re %in : complex<f32>
      %2560 = complex.im %in : complex<f32>
      %2561 = linalg.index 4 : index
      %2562 = arith.cmpi eq, %2561, %c0 : index
      %2563 = arith.select %2562, %2559, %2560 : f32
      linalg.yield %2563 : f32
    } -> tensor<4x?x8x64x2xf32>
    %collapsed_57 = tensor.collapse_shape %205 [[0], [1], [2], [3, 4]] : tensor<4x?x8x64x2xf32> into tensor<4x?x8x128xf32>
    %206 = linalg.generic {indexing_maps = [affine_map<(d0, d1, d2, d3) -> (d0, d1, d2, d3)>, affine_map<(d0, d1, d2, d3) -> (d0, d1, d2, d3)>], iterator_types = ["parallel", "parallel", "parallel", "parallel"]} ins(%collapsed_56 : tensor<4x?x32x128xf32>) outs(%95 : tensor<4x?x32x128xf16>) {
    ^bb0(%in: f32, %out: f16):
      %2559 = arith.truncf %in : f32 to f16
      linalg.yield %2559 : f16
    } -> tensor<4x?x32x128xf16>
    %207 = linalg.generic {indexing_maps = [affine_map<(d0, d1, d2, d3) -> (d0, d1, d2, d3)>, affine_map<(d0, d1, d2, d3) -> (d0, d1, d2, d3)>], iterator_types = ["parallel", "parallel", "parallel", "parallel"]} ins(%collapsed_57 : tensor<4x?x8x128xf32>) outs(%97 : tensor<4x?x8x128xf16>) {
    ^bb0(%in: f32, %out: f16):
      %2559 = arith.truncf %in : f32 to f16
      linalg.yield %2559 : f16
    } -> tensor<4x?x8x128xf16>
    %208 = linalg.generic {indexing_maps = [affine_map<(d0, d1) -> (d0, d1)>, affine_map<(d0, d1) -> (d0, d1)>], iterator_types = ["parallel", "parallel"]} ins(%100 : tensor<4x?xi64>) outs(%99 : tensor<4x?xi64>) {
    ^bb0(%in: i64, %out: i64):
      %2559 = arith.addi %in, %c2_i64 : i64
      linalg.yield %2559 : i64
    } -> tensor<4x?xi64>
    %expanded_58 = tensor.expand_shape %207 [[0], [1, 2], [3], [4]] output_shape [4, %101, 16, 8, 128] : tensor<4x?x8x128xf16> into tensor<4x?x16x8x128xf16>
    %collapsed_59 = tensor.collapse_shape %208 [[0, 1]] : tensor<4x?xi64> into tensor<?xi64>
    %collapsed_60 = tensor.collapse_shape %expanded_58 [[0, 1], [2], [3], [4]] : tensor<4x?x16x8x128xf16> into tensor<?x16x8x128xf16>
    %expanded_61 = tensor.expand_shape %collapsed_59 [[0, 1]] output_shape [%102, 1] : tensor<?xi64> into tensor<?x1xi64>
    %expanded_62 = tensor.expand_shape %collapsed_60 [[0], [1, 2], [3], [4]] output_shape [%103, 1, 16, 8, 128] : tensor<?x16x8x128xf16> into tensor<?x1x16x8x128xf16>
    %209 = linalg.generic {indexing_maps = [affine_map<(d0, d1) -> (d0, 0)>, affine_map<(d0, d1) -> (d0, d1)>], iterator_types = ["parallel", "parallel"]} ins(%expanded_61 : tensor<?x1xi64>) outs(%104 : tensor<?x1xi32>) {
    ^bb0(%in: i64, %out: i32):
      %2559 = arith.trunci %in : i64 to i32
      linalg.yield %2559 : i32
    } -> tensor<?x1xi32>
    %210 = iree_linalg_ext.scatter dimension_map = [0] unique_indices(false) ins(%expanded_62, %209 : tensor<?x1x16x8x128xf16>, tensor<?x1xi32>) outs(%110 : tensor<?x16x8x128xf16>) {
    ^bb0(%arg6: f16, %arg7: f16):
      iree_linalg_ext.yield %arg6 : f16
    } -> tensor<?x16x8x128xf16>
    %211 = linalg.generic {indexing_maps = [affine_map<(d0, d1) -> (d0, d1)>, affine_map<(d0, d1) -> (d0, d1)>], iterator_types = ["parallel", "parallel"]} ins(%208 : tensor<4x?xi64>) outs(%99 : tensor<4x?xi64>) {
    ^bb0(%in: i64, %out: i64):
      %2559 = arith.addi %in, %c1_i64 : i64
      linalg.yield %2559 : i64
    } -> tensor<4x?xi64>
    %collapsed_63 = tensor.collapse_shape %211 [[0, 1]] : tensor<4x?xi64> into tensor<?xi64>
    %expanded_64 = tensor.expand_shape %collapsed_63 [[0, 1]] output_shape [%102, 1] : tensor<?xi64> into tensor<?x1xi64>
    %expanded_65 = tensor.expand_shape %199 [[0, 1, 2], [3, 4]] output_shape [%108, 1, 16, 8, 128] : tensor<?x1024xf16> into tensor<?x1x16x8x128xf16>
    %212 = linalg.generic {indexing_maps = [affine_map<(d0, d1) -> (d0, 0)>, affine_map<(d0, d1) -> (d0, d1)>], iterator_types = ["parallel", "parallel"]} ins(%expanded_64 : tensor<?x1xi64>) outs(%104 : tensor<?x1xi32>) {
    ^bb0(%in: i64, %out: i32):
      %2559 = arith.trunci %in : i64 to i32
      linalg.yield %2559 : i32
    } -> tensor<?x1xi32>
    %213 = iree_linalg_ext.scatter dimension_map = [0] unique_indices(false) ins(%expanded_65, %212 : tensor<?x1x16x8x128xf16>, tensor<?x1xi32>) outs(%210 : tensor<?x16x8x128xf16>) {
    ^bb0(%arg6: f16, %arg7: f16):
      iree_linalg_ext.yield %arg6 : f16
    } -> tensor<?x16x8x128xf16>
    %expanded_66 = tensor.expand_shape %207 [[0], [1], [2], [3, 4]] output_shape [4, %69, 8, 1, 128] : tensor<4x?x8x128xf16> into tensor<4x?x8x1x128xf16>
    %214 = linalg.generic {indexing_maps = [affine_map<(d0, d1, d2, d3, d4) -> (d0, d1, d2, 0, d4)>, affine_map<(d0, d1, d2, d3, d4) -> (d0, d1, d2, d3, d4)>], iterator_types = ["parallel", "parallel", "parallel", "parallel", "parallel"]} ins(%expanded_66 : tensor<4x?x8x1x128xf16>) outs(%111 : tensor<4x?x8x4x128xf16>) {
    ^bb0(%in: f16, %out: f16):
      linalg.yield %in : f16
    } -> tensor<4x?x8x4x128xf16>
    %collapsed_67 = tensor.collapse_shape %214 [[0], [1], [2, 3], [4]] : tensor<4x?x8x4x128xf16> into tensor<4x?x32x128xf16>
    %expanded_68 = tensor.expand_shape %199 [[0, 1], [2, 3, 4]] output_shape [4, %dim, 8, 1, 128] : tensor<?x1024xf16> into tensor<4x?x8x1x128xf16>
    %215 = linalg.generic {indexing_maps = [affine_map<(d0, d1, d2, d3, d4) -> (d0, d1, d2, 0, d4)>, affine_map<(d0, d1, d2, d3, d4) -> (d0, d1, d2, d3, d4)>], iterator_types = ["parallel", "parallel", "parallel", "parallel", "parallel"]} ins(%expanded_68 : tensor<4x?x8x1x128xf16>) outs(%111 : tensor<4x?x8x4x128xf16>) {
    ^bb0(%in: f16, %out: f16):
      linalg.yield %in : f16
    } -> tensor<4x?x8x4x128xf16>
    %collapsed_69 = tensor.collapse_shape %215 [[0], [1], [2, 3], [4]] : tensor<4x?x8x4x128xf16> into tensor<4x?x32x128xf16>
    %216 = linalg.generic {indexing_maps = [affine_map<(d0, d1, d2, d3) -> (d0, d1, d2, d3)>, affine_map<(d0, d1, d2, d3) -> (d0, d2, d1, d3)>], iterator_types = ["parallel", "parallel", "parallel", "parallel"]} ins(%206 : tensor<4x?x32x128xf16>) outs(%114 : tensor<4x32x?x128xf16>) {
    ^bb0(%in: f16, %out: f16):
      linalg.yield %in : f16
    } -> tensor<4x32x?x128xf16>
    %217 = linalg.generic {indexing_maps = [affine_map<(d0, d1, d2, d3) -> (d0, d1, d2, d3)>, affine_map<(d0, d1, d2, d3) -> (d0, d2, d1, d3)>], iterator_types = ["parallel", "parallel", "parallel", "parallel"]} ins(%collapsed_67 : tensor<4x?x32x128xf16>) outs(%114 : tensor<4x32x?x128xf16>) {
    ^bb0(%in: f16, %out: f16):
      linalg.yield %in : f16
    } -> tensor<4x32x?x128xf16>
    %218 = linalg.generic {indexing_maps = [affine_map<(d0, d1, d2, d3) -> (d0, d1, d2, d3)>, affine_map<(d0, d1, d2, d3) -> (d0, d2, d1, d3)>], iterator_types = ["parallel", "parallel", "parallel", "parallel"]} ins(%collapsed_69 : tensor<4x?x32x128xf16>) outs(%114 : tensor<4x32x?x128xf16>) {
    ^bb0(%in: f16, %out: f16):
      linalg.yield %in : f16
    } -> tensor<4x32x?x128xf16>
    %219 = linalg.generic {indexing_maps = [affine_map<(d0, d1, d2, d3) -> (d0, d1, d2, d3)>, affine_map<(d0, d1, d2, d3) -> (d0, d1, d3, d2)>], iterator_types = ["parallel", "parallel", "parallel", "parallel"]} ins(%217 : tensor<4x32x?x128xf16>) outs(%118 : tensor<4x32x128x?xf16>) {
    ^bb0(%in: f16, %out: f16):
      linalg.yield %in : f16
    } -> tensor<4x32x128x?xf16>
    %collapsed_70 = tensor.collapse_shape %216 [[0, 1], [2], [3]] : tensor<4x32x?x128xf16> into tensor<128x?x128xf16>
    %collapsed_71 = tensor.collapse_shape %219 [[0, 1], [2], [3]] : tensor<4x32x128x?xf16> into tensor<128x128x?xf16>
    %220 = linalg.batch_matmul ins(%collapsed_70, %collapsed_71 : tensor<128x?x128xf16>, tensor<128x128x?xf16>) outs(%121 : tensor<128x?x?xf16>) -> tensor<128x?x?xf16>
    %reshape_72 = tensor.reshape %220(%from_elements_37) : (tensor<128x?x?xf16>, tensor<4xi64>) -> tensor<4x32x?x?xf16>
    %221 = linalg.generic {indexing_maps = [affine_map<(d0, d1, d2, d3) -> (d0, d1, d2, d3)>, affine_map<(d0, d1, d2, d3) -> (d0, d1, d2, d3)>], iterator_types = ["parallel", "parallel", "parallel", "parallel"]} ins(%reshape_72 : tensor<4x32x?x?xf16>) outs(%123 : tensor<4x32x?x?xf16>) {
    ^bb0(%in: f16, %out: f16):
      %2559 = arith.truncf %cst_5 : f32 to f16
      %2560 = arith.divf %in, %2559 : f16
      linalg.yield %2560 : f16
    } -> tensor<4x32x?x?xf16>
    %222 = linalg.generic {indexing_maps = [affine_map<(d0, d1, d2, d3) -> (d0, d1, d2, d3)>, affine_map<(d0, d1, d2, d3) -> (d0, 0, d2, d3)>, affine_map<(d0, d1, d2, d3) -> (d0, d1, d2, d3)>], iterator_types = ["parallel", "parallel", "parallel", "parallel"]} ins(%221, %32 : tensor<4x32x?x?xf16>, tensor<4x1x?x?xf16>) outs(%123 : tensor<4x32x?x?xf16>) {
    ^bb0(%in: f16, %in_1081: f16, %out: f16):
      %2559 = arith.addf %in, %in_1081 : f16
      linalg.yield %2559 : f16
    } -> tensor<4x32x?x?xf16>
    %223 = linalg.generic {indexing_maps = [affine_map<(d0, d1, d2, d3) -> (d0, d1, d2, d3)>, affine_map<(d0, d1, d2, d3) -> (d0, d1, d2, d3)>], iterator_types = ["parallel", "parallel", "parallel", "parallel"]} ins(%222 : tensor<4x32x?x?xf16>) outs(%126 : tensor<4x32x?x?xf32>) {
    ^bb0(%in: f16, %out: f32):
      %2559 = arith.extf %in : f16 to f32
      linalg.yield %2559 : f32
    } -> tensor<4x32x?x?xf32>
    %224:2 = linalg.generic {indexing_maps = [affine_map<(d0, d1, d2, d3) -> (d0, d1, d2, d3)>, affine_map<(d0, d1, d2, d3) -> (d0, d1, d2)>, affine_map<(d0, d1, d2, d3) -> (d0, d1, d2)>], iterator_types = ["parallel", "parallel", "parallel", "reduction"]} ins(%223 : tensor<4x32x?x?xf32>) outs(%131, %129 : tensor<4x32x?xf32>, tensor<4x32x?xi64>) {
    ^bb0(%in: f32, %out: f32, %out_1081: i64):
      %2559 = linalg.index 3 : index
      %2560 = arith.index_cast %2559 : index to i64
      %2561 = arith.maximumf %in, %out : f32
      %2562 = arith.cmpf ogt, %in, %out : f32
      %2563 = arith.select %2562, %2560, %out_1081 : i64
      linalg.yield %2561, %2563 : f32, i64
    } -> (tensor<4x32x?xf32>, tensor<4x32x?xi64>)
    %expanded_73 = tensor.expand_shape %224#0 [[0], [1], [2, 3]] output_shape [4, 32, %69, 1] : tensor<4x32x?xf32> into tensor<4x32x?x1xf32>
    %225 = linalg.generic {indexing_maps = [affine_map<(d0, d1, d2, d3) -> (d0, d1, d2, d3)>, affine_map<(d0, d1, d2, d3) -> (d0, d1, d2, 0)>, affine_map<(d0, d1, d2, d3) -> (d0, d1, d2, d3)>], iterator_types = ["parallel", "parallel", "parallel", "parallel"]} ins(%223, %expanded_73 : tensor<4x32x?x?xf32>, tensor<4x32x?x1xf32>) outs(%126 : tensor<4x32x?x?xf32>) {
    ^bb0(%in: f32, %in_1081: f32, %out: f32):
      %2559 = arith.subf %in, %in_1081 : f32
      linalg.yield %2559 : f32
    } -> tensor<4x32x?x?xf32>
    %226 = linalg.generic {indexing_maps = [affine_map<(d0, d1, d2, d3) -> (d0, d1, d2, d3)>, affine_map<(d0, d1, d2, d3) -> (d0, d1, d2, d3)>], iterator_types = ["parallel", "parallel", "parallel", "parallel"]} ins(%225 : tensor<4x32x?x?xf32>) outs(%126 : tensor<4x32x?x?xf32>) {
    ^bb0(%in: f32, %out: f32):
      %2559 = math.exp %in : f32
      linalg.yield %2559 : f32
    } -> tensor<4x32x?x?xf32>
    %227 = linalg.generic {indexing_maps = [affine_map<(d0, d1, d2, d3) -> (d0, d1, d2, d3)>, affine_map<(d0, d1, d2, d3) -> (d0, d1, d2, 0)>], iterator_types = ["parallel", "parallel", "parallel", "reduction"]} ins(%226 : tensor<4x32x?x?xf32>) outs(%136 : tensor<4x32x?x1xf32>) {
    ^bb0(%in: f32, %out: f32):
      %2559 = arith.addf %in, %out : f32
      linalg.yield %2559 : f32
    } -> tensor<4x32x?x1xf32>
    %228 = linalg.generic {indexing_maps = [affine_map<(d0, d1, d2, d3) -> (d0, d1, d2, d3)>, affine_map<(d0, d1, d2, d3) -> (d0, d1, d2, 0)>, affine_map<(d0, d1, d2, d3) -> (d0, d1, d2, d3)>], iterator_types = ["parallel", "parallel", "parallel", "parallel"]} ins(%226, %227 : tensor<4x32x?x?xf32>, tensor<4x32x?x1xf32>) outs(%126 : tensor<4x32x?x?xf32>) {
    ^bb0(%in: f32, %in_1081: f32, %out: f32):
      %2559 = arith.divf %in, %in_1081 : f32
      linalg.yield %2559 : f32
    } -> tensor<4x32x?x?xf32>
    %229 = linalg.generic {indexing_maps = [affine_map<(d0, d1, d2, d3) -> (d0, d1, d2, d3)>, affine_map<(d0, d1, d2, d3) -> (d0, d1, d2, d3)>], iterator_types = ["parallel", "parallel", "parallel", "parallel"]} ins(%228 : tensor<4x32x?x?xf32>) outs(%123 : tensor<4x32x?x?xf16>) {
    ^bb0(%in: f32, %out: f16):
      %2559 = arith.truncf %in : f32 to f16
      linalg.yield %2559 : f16
    } -> tensor<4x32x?x?xf16>
    %reshape_74 = tensor.reshape %229(%from_elements_40) : (tensor<4x32x?x?xf16>, tensor<3xi64>) -> tensor<128x?x?xf16>
    %collapsed_75 = tensor.collapse_shape %218 [[0, 1], [2], [3]] : tensor<4x32x?x128xf16> into tensor<128x?x128xf16>
    %230 = linalg.batch_matmul ins(%reshape_74, %collapsed_75 : tensor<128x?x?xf16>, tensor<128x?x128xf16>) outs(%141 : tensor<128x?x128xf16>) -> tensor<128x?x128xf16>
    %expanded_76 = tensor.expand_shape %230 [[0, 1], [2], [3]] output_shape [4, 32, %69, 128] : tensor<128x?x128xf16> into tensor<4x32x?x128xf16>
    %231 = linalg.generic {indexing_maps = [affine_map<(d0, d1, d2, d3) -> (d0, d1, d2, d3)>, affine_map<(d0, d1, d2, d3) -> (d0, d2, d1, d3)>], iterator_types = ["parallel", "parallel", "parallel", "parallel"]} ins(%expanded_76 : tensor<4x32x?x128xf16>) outs(%95 : tensor<4x?x32x128xf16>) {
    ^bb0(%in: f16, %out: f16):
      linalg.yield %in : f16
    } -> tensor<4x?x32x128xf16>
    %232 = linalg.generic {indexing_maps = [affine_map<(d0, d1) -> (d0, d1)>, affine_map<(d0, d1) -> (d1, d0)>], iterator_types = ["parallel", "parallel"]} ins(%__auto.blk.1.attn_output.weight : tensor<4096x4096xf16>) outs(%47 : tensor<4096x4096xf16>) {
    ^bb0(%in: f16, %out: f16):
      linalg.yield %in : f16
    } -> tensor<4096x4096xf16>
    %collapsed_77 = tensor.collapse_shape %231 [[0, 1], [2, 3]] : tensor<4x?x32x128xf16> into tensor<?x4096xf16>
    %233 = linalg.matmul ins(%collapsed_77, %232 : tensor<?x4096xf16>, tensor<4096x4096xf16>) outs(%147 : tensor<?x4096xf32>) -> tensor<?x4096xf32>
    %234 = linalg.generic {indexing_maps = [affine_map<(d0, d1) -> (d0, d1)>, affine_map<(d0, d1) -> (d0, d1)>], iterator_types = ["parallel", "parallel"]} ins(%233 : tensor<?x4096xf32>) outs(%149 : tensor<?x4096xf16>) {
    ^bb0(%in: f32, %out: f16):
      %2559 = arith.truncf %in : f32 to f16
      linalg.yield %2559 : f16
    } -> tensor<?x4096xf16>
    %expanded_78 = tensor.expand_shape %234 [[0, 1], [2]] output_shape [4, %151, 4096] : tensor<?x4096xf16> into tensor<4x?x4096xf16>
    %235 = linalg.generic {indexing_maps = [affine_map<(d0, d1, d2) -> (d0, d1, d2)>, affine_map<(d0, d1, d2) -> (d0, d1, d2)>, affine_map<(d0, d1, d2) -> (d0, d1, d2)>], iterator_types = ["parallel", "parallel", "parallel"]} ins(%181, %expanded_78 : tensor<4x?x4096xf16>, tensor<4x?x4096xf16>) outs(%33 : tensor<4x?x4096xf16>) {
    ^bb0(%in: f16, %in_1081: f16, %out: f16):
      %2559 = arith.addf %in, %in_1081 : f16
      linalg.yield %2559 : f16
    } -> tensor<4x?x4096xf16>
    %236 = linalg.generic {indexing_maps = [affine_map<(d0, d1, d2) -> (d0, d1, d2)>, affine_map<(d0, d1, d2) -> (d0, d1, d2)>], iterator_types = ["parallel", "parallel", "parallel"]} ins(%235 : tensor<4x?x4096xf16>) outs(%35 : tensor<4x?x4096xf32>) {
    ^bb0(%in: f16, %out: f32):
      %2559 = arith.extf %in : f16 to f32
      linalg.yield %2559 : f32
    } -> tensor<4x?x4096xf32>
    %237 = linalg.generic {indexing_maps = [affine_map<(d0, d1, d2) -> (d0, d1, d2)>, affine_map<(d0, d1, d2) -> (d0, d1, d2)>], iterator_types = ["parallel", "parallel", "parallel"]} ins(%236 : tensor<4x?x4096xf32>) outs(%35 : tensor<4x?x4096xf32>) {
    ^bb0(%in: f32, %out: f32):
      %2559 = math.powf %in, %cst_6 : f32
      linalg.yield %2559 : f32
    } -> tensor<4x?x4096xf32>
    %238 = linalg.generic {indexing_maps = [affine_map<(d0, d1, d2) -> (d0, d1, d2)>, affine_map<(d0, d1, d2) -> (d0, d1, 0)>], iterator_types = ["parallel", "parallel", "reduction"]} ins(%237 : tensor<4x?x4096xf32>) outs(%39 : tensor<4x?x1xf32>) {
    ^bb0(%in: f32, %out: f32):
      %2559 = arith.addf %in, %out : f32
      linalg.yield %2559 : f32
    } -> tensor<4x?x1xf32>
    %239 = linalg.generic {indexing_maps = [affine_map<(d0, d1, d2) -> (d0, d1, 0)>, affine_map<(d0, d1, d2) -> (d0, d1, d2)>], iterator_types = ["parallel", "parallel", "parallel"]} ins(%238 : tensor<4x?x1xf32>) outs(%38 : tensor<4x?x1xf32>) {
    ^bb0(%in: f32, %out: f32):
      %2559 = arith.divf %in, %cst_7 : f32
      linalg.yield %2559 : f32
    } -> tensor<4x?x1xf32>
    %240 = linalg.generic {indexing_maps = [affine_map<(d0, d1, d2) -> (d0, d1, 0)>, affine_map<(d0, d1, d2) -> (d0, d1, d2)>], iterator_types = ["parallel", "parallel", "parallel"]} ins(%239 : tensor<4x?x1xf32>) outs(%38 : tensor<4x?x1xf32>) {
    ^bb0(%in: f32, %out: f32):
      %2559 = arith.addf %in, %cst_8 : f32
      linalg.yield %2559 : f32
    } -> tensor<4x?x1xf32>
    %241 = linalg.generic {indexing_maps = [affine_map<(d0, d1, d2) -> (d0, d1, 0)>, affine_map<(d0, d1, d2) -> (d0, d1, d2)>], iterator_types = ["parallel", "parallel", "parallel"]} ins(%240 : tensor<4x?x1xf32>) outs(%38 : tensor<4x?x1xf32>) {
    ^bb0(%in: f32, %out: f32):
      %2559 = math.rsqrt %in : f32
      linalg.yield %2559 : f32
    } -> tensor<4x?x1xf32>
    %242 = linalg.generic {indexing_maps = [affine_map<(d0, d1, d2) -> (d0, d1, d2)>, affine_map<(d0, d1, d2) -> (d0, d1, 0)>, affine_map<(d0, d1, d2) -> (d0, d1, d2)>], iterator_types = ["parallel", "parallel", "parallel"]} ins(%236, %241 : tensor<4x?x4096xf32>, tensor<4x?x1xf32>) outs(%35 : tensor<4x?x4096xf32>) {
    ^bb0(%in: f32, %in_1081: f32, %out: f32):
      %2559 = arith.mulf %in, %in_1081 : f32
      linalg.yield %2559 : f32
    } -> tensor<4x?x4096xf32>
    %243 = linalg.generic {indexing_maps = [affine_map<(d0, d1, d2) -> (d0, d1, d2)>, affine_map<(d0, d1, d2) -> (d2)>, affine_map<(d0, d1, d2) -> (d0, d1, d2)>], iterator_types = ["parallel", "parallel", "parallel"]} ins(%242, %__auto.blk.1.ffn_norm.weight : tensor<4x?x4096xf32>, tensor<4096xf32>) outs(%35 : tensor<4x?x4096xf32>) {
    ^bb0(%in: f32, %in_1081: f32, %out: f32):
      %2559 = arith.mulf %in, %in_1081 : f32
      linalg.yield %2559 : f32
    } -> tensor<4x?x4096xf32>
    %244 = linalg.generic {indexing_maps = [affine_map<(d0, d1, d2) -> (d0, d1, d2)>, affine_map<(d0, d1, d2) -> (d0, d1, d2)>], iterator_types = ["parallel", "parallel", "parallel"]} ins(%243 : tensor<4x?x4096xf32>) outs(%33 : tensor<4x?x4096xf16>) {
    ^bb0(%in: f32, %out: f16):
      %2559 = arith.truncf %in : f32 to f16
      linalg.yield %2559 : f16
    } -> tensor<4x?x4096xf16>
    %245 = linalg.generic {indexing_maps = [affine_map<(d0, d1) -> (d0, d1)>, affine_map<(d0, d1) -> (d1, d0)>], iterator_types = ["parallel", "parallel"]} ins(%__auto.blk.1.ffn_gate.weight : tensor<14336x4096xf16>) outs(%162 : tensor<4096x14336xf16>) {
    ^bb0(%in: f16, %out: f16):
      linalg.yield %in : f16
    } -> tensor<4096x14336xf16>
    %collapsed_79 = tensor.collapse_shape %244 [[0, 1], [2]] : tensor<4x?x4096xf16> into tensor<?x4096xf16>
    %246 = linalg.matmul ins(%collapsed_79, %245 : tensor<?x4096xf16>, tensor<4096x14336xf16>) outs(%165 : tensor<?x14336xf32>) -> tensor<?x14336xf32>
    %247 = linalg.generic {indexing_maps = [affine_map<(d0, d1) -> (d0, d1)>, affine_map<(d0, d1) -> (d0, d1)>], iterator_types = ["parallel", "parallel"]} ins(%246 : tensor<?x14336xf32>) outs(%167 : tensor<?x14336xf16>) {
    ^bb0(%in: f32, %out: f16):
      %2559 = arith.truncf %in : f32 to f16
      linalg.yield %2559 : f16
    } -> tensor<?x14336xf16>
    %expanded_80 = tensor.expand_shape %247 [[0, 1], [2]] output_shape [4, %169, 14336] : tensor<?x14336xf16> into tensor<4x?x14336xf16>
…
    } -> tensor<4096x4096xf16>
    %collapsed_1995 = tensor.collapse_shape %3152 [[0], [1, 2]] : tensor<4x1x4096xf16> into tensor<4x4096xf16>
    %3154 = linalg.matmul ins(%collapsed_1995, %3153 : tensor<4x4096xf16>, tensor<4096x4096xf16>) outs(%45 : tensor<4x4096xf32>) -> tensor<4x4096xf32>
    %3155 = linalg.generic {indexing_maps = [affine_map<(d0, d1) -> (d0, d1)>, affine_map<(d0, d1) -> (d0, d1)>], iterator_types = ["parallel", "parallel"]} ins(%3154 : tensor<4x4096xf32>) outs(%47 : tensor<4x4096xf16>) {
    ^bb0(%in: f32, %out: f16):
      %3261 = arith.truncf %in : f32 to f16
      linalg.yield %3261 : f16
    } -> tensor<4x4096xf16>
    %3156 = linalg.generic {indexing_maps = [affine_map<(d0, d1) -> (d0, d1)>, affine_map<(d0, d1) -> (d1, d0)>], iterator_types = ["parallel", "parallel"]} ins(%__auto.blk.31.attn_k.weight : tensor<1024x4096xf16>) outs(%49 : tensor<4096x1024xf16>) {
    ^bb0(%in: f16, %out: f16):
      linalg.yield %in : f16
    } -> tensor<4096x1024xf16>
    %3157 = linalg.matmul ins(%collapsed_1995, %3156 : tensor<4x4096xf16>, tensor<4096x1024xf16>) outs(%52 : tensor<4x1024xf32>) -> tensor<4x1024xf32>
    %3158 = linalg.generic {indexing_maps = [affine_map<(d0, d1) -> (d0, d1)>, affine_map<(d0, d1) -> (d0, d1)>], iterator_types = ["parallel", "parallel"]} ins(%3157 : tensor<4x1024xf32>) outs(%54 : tensor<4x1024xf16>) {
    ^bb0(%in: f32, %out: f16):
      %3261 = arith.truncf %in : f32 to f16
      linalg.yield %3261 : f16
    } -> tensor<4x1024xf16>
    %3159 = linalg.generic {indexing_maps = [affine_map<(d0, d1) -> (d0, d1)>, affine_map<(d0, d1) -> (d1, d0)>], iterator_types = ["parallel", "parallel"]} ins(%__auto.blk.31.attn_v.weight : tensor<1024x4096xf16>) outs(%49 : tensor<4096x1024xf16>) {
    ^bb0(%in: f16, %out: f16):
      linalg.yield %in : f16
    } -> tensor<4096x1024xf16>
    %3160 = linalg.matmul ins(%collapsed_1995, %3159 : tensor<4x4096xf16>, tensor<4096x1024xf16>) outs(%52 : tensor<4x1024xf32>) -> tensor<4x1024xf32>
    %3161 = linalg.generic {indexing_maps = [affine_map<(d0, d1) -> (d0, d1)>, affine_map<(d0, d1) -> (d0, d1)>], iterator_types = ["parallel", "parallel"]} ins(%3160 : tensor<4x1024xf32>) outs(%54 : tensor<4x1024xf16>) {
    ^bb0(%in: f32, %out: f16):
      %3261 = arith.truncf %in : f32 to f16
      linalg.yield %3261 : f16
    } -> tensor<4x1024xf16>
    %expanded_1996 = tensor.expand_shape %3161 [[0], [1, 2, 3]] output_shape [4, 1, 8, 128] : tensor<4x1024xf16> into tensor<4x1x8x128xf16>
    %expanded_1997 = tensor.expand_shape %3155 [[0], [1, 2, 3, 4]] output_shape [4, 1, 32, 64, 2] : tensor<4x4096xf16> into tensor<4x1x32x64x2xf16>
    %3162 = linalg.generic {indexing_maps = [affine_map<(d0, d1, d2, d3) -> (d0, d1, d2, d3)>], iterator_types = ["parallel", "parallel", "parallel", "parallel"]} outs(%59 : tensor<4x1x32x64xcomplex<f16>>) {
    ^bb0(%out: complex<f16>):
      %3261 = linalg.index 0 : index
      %3262 = linalg.index 1 : index
      %3263 = linalg.index 2 : index
      %3264 = linalg.index 3 : index
      %extracted = tensor.extract %expanded_1997[%3261, %3262, %3263, %3264, %c0] : tensor<4x1x32x64x2xf16>
      %extracted_2061 = tensor.extract %expanded_1997[%3261, %3262, %3263, %3264, %c1] : tensor<4x1x32x64x2xf16>
      %3265 = complex.create %extracted, %extracted_2061 : complex<f16>
      linalg.yield %3265 : complex<f16>
    } -> tensor<4x1x32x64xcomplex<f16>>
    %expanded_1998 = tensor.expand_shape %3158 [[0], [1, 2, 3, 4]] output_shape [4, 1, 8, 64, 2] : tensor<4x1024xf16> into tensor<4x1x8x64x2xf16>
    %3163 = linalg.generic {indexing_maps = [affine_map<(d0, d1, d2, d3) -> (d0, d1, d2, d3)>], iterator_types = ["parallel", "parallel", "parallel", "parallel"]} outs(%61 : tensor<4x1x8x64xcomplex<f16>>) {
    ^bb0(%out: complex<f16>):
      %3261 = linalg.index 0 : index
      %3262 = linalg.index 1 : index
      %3263 = linalg.index 2 : index
      %3264 = linalg.index 3 : index
      %extracted = tensor.extract %expanded_1998[%3261, %3262, %3263, %3264, %c0] : tensor<4x1x8x64x2xf16>
      %extracted_2061 = tensor.extract %expanded_1998[%3261, %3262, %3263, %3264, %c1] : tensor<4x1x8x64x2xf16>
      %3265 = complex.create %extracted, %extracted_2061 : complex<f16>
      linalg.yield %3265 : complex<f16>
    } -> tensor<4x1x8x64xcomplex<f16>>
    %3164 = linalg.generic {indexing_maps = [affine_map<(d0, d1, d2, d3) -> (d0, 0, d2, d3)>, affine_map<(d0, d1, d2, d3) -> (d0, 0, 0, d3)>, affine_map<(d0, d1, d2, d3) -> (d0, d1, d2, d3)>], iterator_types = ["parallel", "parallel", "parallel", "parallel"]} ins(%3162, %expanded_44 : tensor<4x1x32x64xcomplex<f16>>, tensor<4x1x1x64xcomplex<f32>>) outs(%63 : tensor<4x1x32x64xcomplex<f32>>) {
    ^bb0(%in: complex<f16>, %in_2061: complex<f32>, %out: complex<f32>):
      %3261 = complex.re %in : complex<f16>
      %3262 = complex.im %in : complex<f16>
      %3263 = arith.extf %3261 : f16 to f32
      %3264 = arith.extf %3262 : f16 to f32
      %3265 = complex.create %3263, %3264 : complex<f32>
      %3266 = complex.mul %3265, %in_2061 : complex<f32>
      linalg.yield %3266 : complex<f32>
    } -> tensor<4x1x32x64xcomplex<f32>>
    %3165 = linalg.generic {indexing_maps = [affine_map<(d0, d1, d2, d3, d4) -> (d0, d1, d2, d3)>, affine_map<(d0, d1, d2, d3, d4) -> (d0, d1, d2, d3, d4)>], iterator_types = ["parallel", "parallel", "parallel", "parallel", "parallel"]} ins(%3164 : tensor<4x1x32x64xcomplex<f32>>) outs(%65 : tensor<4x1x32x64x2xf32>) {
    ^bb0(%in: complex<f32>, %out: f32):
      %3261 = complex.re %in : complex<f32>
      %3262 = complex.im %in : complex<f32>
      %3263 = linalg.index 4 : index
      %3264 = arith.cmpi eq, %3263, %c0 : index
      %3265 = arith.select %3264, %3261, %3262 : f32
      linalg.yield %3265 : f32
    } -> tensor<4x1x32x64x2xf32>
    %collapsed_1999 = tensor.collapse_shape %3165 [[0], [1], [2], [3, 4]] : tensor<4x1x32x64x2xf32> into tensor<4x1x32x128xf32>
    %3166 = linalg.generic {indexing_maps = [affine_map<(d0, d1, d2, d3) -> (d0, 0, d2, d3)>, affine_map<(d0, d1, d2, d3) -> (d0, 0, 0, d3)>, affine_map<(d0, d1, d2, d3) -> (d0, d1, d2, d3)>], iterator_types = ["parallel", "parallel", "parallel", "parallel"]} ins(%3163, %expanded_44 : tensor<4x1x8x64xcomplex<f16>>, tensor<4x1x1x64xcomplex<f32>>) outs(%67 : tensor<4x1x8x64xcomplex<f32>>) {
    ^bb0(%in: complex<f16>, %in_2061: complex<f32>, %out: complex<f32>):
      %3261 = complex.re %in : complex<f16>
      %3262 = complex.im %in : complex<f16>
      %3263 = arith.extf %3261 : f16 to f32
      %3264 = arith.extf %3262 : f16 to f32
      %3265 = complex.create %3263, %3264 : complex<f32>
      %3266 = complex.mul %3265, %in_2061 : complex<f32>
      linalg.yield %3266 : complex<f32>
    } -> tensor<4x1x8x64xcomplex<f32>>
    %3167 = linalg.generic {indexing_maps = [affine_map<(d0, d1, d2, d3, d4) -> (d0, d1, d2, d3)>, affine_map<(d0, d1, d2, d3, d4) -> (d0, d1, d2, d3, d4)>], iterator_types = ["parallel", "parallel", "parallel", "parallel", "parallel"]} ins(%3166 : tensor<4x1x8x64xcomplex<f32>>) outs(%69 : tensor<4x1x8x64x2xf32>) {
    ^bb0(%in: complex<f32>, %out: f32):
      %3261 = complex.re %in : complex<f32>
      %3262 = complex.im %in : complex<f32>
      %3263 = linalg.index 4 : index
      %3264 = arith.cmpi eq, %3263, %c0 : index
      %3265 = arith.select %3264, %3261, %3262 : f32
      linalg.yield %3265 : f32
    } -> tensor<4x1x8x64x2xf32>
    %collapsed_2000 = tensor.collapse_shape %3167 [[0], [1], [2], [3, 4]] : tensor<4x1x8x64x2xf32> into tensor<4x1x8x128xf32>
    %3168 = linalg.generic {indexing_maps = [affine_map<(d0, d1, d2, d3) -> (d0, 0, d2, d3)>, affine_map<(d0, d1, d2, d3) -> (d0, d1, d2, d3)>], iterator_types = ["parallel", "parallel", "parallel", "parallel"]} ins(%collapsed_1999 : tensor<4x1x32x128xf32>) outs(%71 : tensor<4x1x32x128xf16>) {
    ^bb0(%in: f32, %out: f16):
      %3261 = arith.truncf %in : f32 to f16
      linalg.yield %3261 : f16
    } -> tensor<4x1x32x128xf16>
    %3169 = linalg.generic {indexing_maps = [affine_map<(d0, d1, d2, d3) -> (d0, 0, d2, d3)>, affine_map<(d0, d1, d2, d3) -> (d0, d1, d2, d3)>], iterator_types = ["parallel", "parallel", "parallel", "parallel"]} ins(%collapsed_2000 : tensor<4x1x8x128xf32>) outs(%73 : tensor<4x1x8x128xf16>) {
    ^bb0(%in: f32, %out: f16):
      %3261 = arith.truncf %in : f32 to f16
      linalg.yield %3261 : f16
    } -> tensor<4x1x8x128xf16>
    %extracted_slice_2001 = tensor.extract_slice %3169[0, 0, 0, 0] [1, 1, 8, 128] [1, 1, 1, 1] : tensor<4x1x8x128xf16> to tensor<1x1x8x128xf16>
    %collapsed_2002 = tensor.collapse_shape %extracted_slice_2001 [[0, 1, 2], [3]] : tensor<1x1x8x128xf16> into tensor<8x128xf16>
    %3170 = linalg.generic {indexing_maps = [affine_map<(d0, d1, d2) -> (d1, d2)>, affine_map<(d0, d1, d2) -> (d0, d1, d2)>], iterator_types = ["parallel", "parallel", "parallel"]} ins(%collapsed_2002 : tensor<8x128xf16>) outs(%81 : tensor<1x8x128xf16>) {
    ^bb0(%in: f16, %out: f16):
      linalg.yield %in : f16
    } -> tensor<1x8x128xf16>
    %concat_2003 = tensor.concat dim(1) %expanded_58, %cst, %cst_30, %expanded_59 : (tensor<1x1xi64>, tensor<1x1xi64>, tensor<1x1xi64>, tensor<1x1xi64>) -> tensor<1x4xi64>
    %expanded_2004 = tensor.expand_shape %3170 [[0], [1, 2, 3, 4, 5], [6]] output_shape [1, 1, 1, 1, 1, 8, 128] : tensor<1x8x128xf16> into tensor<1x1x1x1x1x8x128xf16>
    %3171 = linalg.generic {indexing_maps = [affine_map<(d0, d1) -> (0, d1)>, affine_map<(d0, d1) -> (d0, d1)>], iterator_types = ["parallel", "parallel"]} ins(%concat_2003 : tensor<1x4xi64>) outs(%83 : tensor<1x4xi32>) {
    ^bb0(%in: i64, %out: i32):
      %3261 = arith.trunci %in : i64 to i32
      linalg.yield %3261 : i32
    } -> tensor<1x4xi32>
    %3172 = iree_linalg_ext.scatter dimension_map = [0, 1, 2, 3] unique_indices(false) ins(%expanded_2004, %3171 : tensor<1x1x1x1x1x8x128xf16>, tensor<1x4xi32>) outs(%3095 : tensor<?x32x2x16x8x128xf16>) {
    ^bb0(%arg7: f16, %arg8: f16):
      iree_linalg_ext.yield %arg7 : f16
    } -> tensor<?x32x2x16x8x128xf16>
    %extracted_slice_2005 = tensor.extract_slice %expanded_1996[0, 0, 0, 0] [1, 1, 8, 128] [1, 1, 1, 1] : tensor<4x1x8x128xf16> to tensor<1x1x8x128xf16>
    %collapsed_2006 = tensor.collapse_shape %extracted_slice_2005 [[0, 1, 2], [3]] : tensor<1x1x8x128xf16> into tensor<8x128xf16>
    %3173 = linalg.generic {indexing_maps = [affine_map<(d0, d1, d2) -> (d1, d2)>, affine_map<(d0, d1, d2) -> (d0, d1, d2)>], iterator_types = ["parallel", "parallel", "parallel"]} ins(%collapsed_2006 : tensor<8x128xf16>) outs(%81 : tensor<1x8x128xf16>) {
    ^bb0(%in: f16, %out: f16):
      linalg.yield %in : f16
    } -> tensor<1x8x128xf16>
    %concat_2007 = tensor.concat dim(1) %expanded_58, %cst, %cst_29, %expanded_59 : (tensor<1x1xi64>, tensor<1x1xi64>, tensor<1x1xi64>, tensor<1x1xi64>) -> tensor<1x4xi64>
    %expanded_2008 = tensor.expand_shape %3173 [[0], [1, 2, 3, 4, 5], [6]] output_shape [1, 1, 1, 1, 1, 8, 128] : tensor<1x8x128xf16> into tensor<1x1x1x1x1x8x128xf16>
    %3174 = linalg.generic {indexing_maps = [affine_map<(d0, d1) -> (0, d1)>, affine_map<(d0, d1) -> (d0, d1)>], iterator_types = ["parallel", "parallel"]} ins(%concat_2007 : tensor<1x4xi64>) outs(%83 : tensor<1x4xi32>) {
    ^bb0(%in: i64, %out: i32):
      %3261 = arith.trunci %in : i64 to i32
      linalg.yield %3261 : i32
    } -> tensor<1x4xi32>
    %3175 = iree_linalg_ext.scatter dimension_map = [0, 1, 2, 3] unique_indices(false) ins(%expanded_2008, %3174 : tensor<1x1x1x1x1x8x128xf16>, tensor<1x4xi32>) outs(%3172 : tensor<?x32x2x16x8x128xf16>) {
    ^bb0(%arg7: f16, %arg8: f16):
      iree_linalg_ext.yield %arg7 : f16
    } -> tensor<?x32x2x16x8x128xf16>
    %extracted_slice_2009 = tensor.extract_slice %3169[1, 0, 0, 0] [1, 1, 8, 128] [1, 1, 1, 1] : tensor<4x1x8x128xf16> to tensor<1x1x8x128xf16>
    %collapsed_2010 = tensor.collapse_shape %extracted_slice_2009 [[0, 1, 2], [3]] : tensor<1x1x8x128xf16> into tensor<8x128xf16>
    %3176 = linalg.generic {indexing_maps = [affine_map<(d0, d1, d2) -> (d1, d2)>, affine_map<(d0, d1, d2) -> (d0, d1, d2)>], iterator_types = ["parallel", "parallel", "parallel"]} ins(%collapsed_2010 : tensor<8x128xf16>) outs(%81 : tensor<1x8x128xf16>) {
    ^bb0(%in: f16, %out: f16):
      linalg.yield %in : f16
    } -> tensor<1x8x128xf16>
    %concat_2011 = tensor.concat dim(1) %expanded_72, %cst, %cst_30, %expanded_73 : (tensor<1x1xi64>, tensor<1x1xi64>, tensor<1x1xi64>, tensor<1x1xi64>) -> tensor<1x4xi64>
    %expanded_2012 = tensor.expand_shape %3176 [[0], [1, 2, 3, 4, 5], [6]] output_shape [1, 1, 1, 1, 1, 8, 128] : tensor<1x8x128xf16> into tensor<1x1x1x1x1x8x128xf16>
    %3177 = linalg.generic {indexing_maps = [affine_map<(d0, d1) -> (0, d1)>, affine_map<(d0, d1) -> (d0, d1)>], iterator_types = ["parallel", "parallel"]} ins(%concat_2011 : tensor<1x4xi64>) outs(%83 : tensor<1x4xi32>) {
    ^bb0(%in: i64, %out: i32):
      %3261 = arith.trunci %in : i64 to i32
      linalg.yield %3261 : i32
    } -> tensor<1x4xi32>
    %3178 = iree_linalg_ext.scatter dimension_map = [0, 1, 2, 3] unique_indices(false) ins(%expanded_2012, %3177 : tensor<1x1x1x1x1x8x128xf16>, tensor<1x4xi32>) outs(%3175 : tensor<?x32x2x16x8x128xf16>) {
    ^bb0(%arg7: f16, %arg8: f16):
      iree_linalg_ext.yield %arg7 : f16
    } -> tensor<?x32x2x16x8x128xf16>
    %extracted_slice_2013 = tensor.extract_slice %expanded_1996[1, 0, 0, 0] [1, 1, 8, 128] [1, 1, 1, 1] : tensor<4x1x8x128xf16> to tensor<1x1x8x128xf16>
    %collapsed_2014 = tensor.collapse_shape %extracted_slice_2013 [[0, 1, 2], [3]] : tensor<1x1x8x128xf16> into tensor<8x128xf16>
    %3179 = linalg.generic {indexing_maps = [affine_map<(d0, d1, d2) -> (d1, d2)>, affine_map<(d0, d1, d2) -> (d0, d1, d2)>], iterator_types = ["parallel", "parallel", "parallel"]} ins(%collapsed_2014 : tensor<8x128xf16>) outs(%81 : tensor<1x8x128xf16>) {
    ^bb0(%in: f16, %out: f16):
      linalg.yield %in : f16
    } -> tensor<1x8x128xf16>
    %concat_2015 = tensor.concat dim(1) %expanded_72, %cst, %cst_29, %expanded_73 : (tensor<1x1xi64>, tensor<1x1xi64>, tensor<1x1xi64>, tensor<1x1xi64>) -> tensor<1x4xi64>
    %expanded_2016 = tensor.expand_shape %3179 [[0], [1, 2, 3, 4, 5], [6]] output_shape [1, 1, 1, 1, 1, 8, 128] : tensor<1x8x128xf16> into tensor<1x1x1x1x1x8x128xf16>
    %3180 = linalg.generic {indexing_maps = [affine_map<(d0, d1) -> (0, d1)>, affine_map<(d0, d1) -> (d0, d1)>], iterator_types = ["parallel", "parallel"]} ins(%concat_2015 : tensor<1x4xi64>) outs(%83 : tensor<1x4xi32>) {
    ^bb0(%in: i64, %out: i32):
      %3261 = arith.trunci %in : i64 to i32
      linalg.yield %3261 : i32
    } -> tensor<1x4xi32>
    %3181 = iree_linalg_ext.scatter dimension_map = [0, 1, 2, 3] unique_indices(false) ins(%expanded_2016, %3180 : tensor<1x1x1x1x1x8x128xf16>, tensor<1x4xi32>) outs(%3178 : tensor<?x32x2x16x8x128xf16>) {
    ^bb0(%arg7: f16, %arg8: f16):
      iree_linalg_ext.yield %arg7 : f16
    } -> tensor<?x32x2x16x8x128xf16>
    %extracted_slice_2017 = tensor.extract_slice %3169[2, 0, 0, 0] [1, 1, 8, 128] [1, 1, 1, 1] : tensor<4x1x8x128xf16> to tensor<1x1x8x128xf16>
    %collapsed_2018 = tensor.collapse_shape %extracted_slice_2017 [[0, 1, 2], [3]] : tensor<1x1x8x128xf16> into tensor<8x128xf16>
    %3182 = linalg.generic {indexing_maps = [affine_map<(d0, d1, d2) -> (d1, d2)>, affine_map<(d0, d1, d2) -> (d0, d1, d2)>], iterator_types = ["parallel", "parallel", "parallel"]} ins(%collapsed_2018 : tensor<8x128xf16>) outs(%81 : tensor<1x8x128xf16>) {
    ^bb0(%in: f16, %out: f16):
      linalg.yield %in : f16
    } -> tensor<1x8x128xf16>
    %concat_2019 = tensor.concat dim(1) %expanded_87, %cst, %cst_30, %expanded_88 : (tensor<1x1xi64>, tensor<1x1xi64>, tensor<1x1xi64>, tensor<1x1xi64>) -> tensor<1x4xi64>
    %expanded_2020 = tensor.expand_shape %3182 [[0], [1, 2, 3, 4, 5], [6]] output_shape [1, 1, 1, 1, 1, 8, 128] : tensor<1x8x128xf16> into tensor<1x1x1x1x1x8x128xf16>
    %3183 = linalg.generic {indexing_maps = [affine_map<(d0, d1) -> (0, d1)>, affine_map<(d0, d1) -> (d0, d1)>], iterator_types = ["parallel", "parallel"]} ins(%concat_2019 : tensor<1x4xi64>) outs(%83 : tensor<1x4xi32>) {
    ^bb0(%in: i64, %out: i32):
      %3261 = arith.trunci %in : i64 to i32
      linalg.yield %3261 : i32
    } -> tensor<1x4xi32>
    %3184 = iree_linalg_ext.scatter dimension_map = [0, 1, 2, 3] unique_indices(false) ins(%expanded_2020, %3183 : tensor<1x1x1x1x1x8x128xf16>, tensor<1x4xi32>) outs(%3181 : tensor<?x32x2x16x8x128xf16>) {
    ^bb0(%arg7: f16, %arg8: f16):
      iree_linalg_ext.yield %arg7 : f16
    } -> tensor<?x32x2x16x8x128xf16>
    %extracted_slice_2021 = tensor.extract_slice %expanded_1996[2, 0, 0, 0] [1, 1, 8, 128] [1, 1, 1, 1] : tensor<4x1x8x128xf16> to tensor<1x1x8x128xf16>
    %collapsed_2022 = tensor.collapse_shape %extracted_slice_2021 [[0, 1, 2], [3]] : tensor<1x1x8x128xf16> into tensor<8x128xf16>
    %3185 = linalg.generic {indexing_maps = [affine_map<(d0, d1, d2) -> (d1, d2)>, affine_map<(d0, d1, d2) -> (d0, d1, d2)>], iterator_types = ["parallel", "parallel", "parallel"]} ins(%collapsed_2022 : tensor<8x128xf16>) outs(%81 : tensor<1x8x128xf16>) {
    ^bb0(%in: f16, %out: f16):
      linalg.yield %in : f16
    } -> tensor<1x8x128xf16>
    %concat_2023 = tensor.concat dim(1) %expanded_87, %cst, %cst_29, %expanded_88 : (tensor<1x1xi64>, tensor<1x1xi64>, tensor<1x1xi64>, tensor<1x1xi64>) -> tensor<1x4xi64>
    %expanded_2024 = tensor.expand_shape %3185 [[0], [1, 2, 3, 4, 5], [6]] output_shape [1, 1, 1, 1, 1, 8, 128] : tensor<1x8x128xf16> into tensor<1x1x1x1x1x8x128xf16>
    %3186 = linalg.generic {indexing_maps = [affine_map<(d0, d1) -> (0, d1)>, affine_map<(d0, d1) -> (d0, d1)>], iterator_types = ["parallel", "parallel"]} ins(%concat_2023 : tensor<1x4xi64>) outs(%83 : tensor<1x4xi32>) {
    ^bb0(%in: i64, %out: i32):
      %3261 = arith.trunci %in : i64 to i32
      linalg.yield %3261 : i32
    } -> tensor<1x4xi32>
    %3187 = iree_linalg_ext.scatter dimension_map = [0, 1, 2, 3] unique_indices(false) ins(%expanded_2024, %3186 : tensor<1x1x1x1x1x8x128xf16>, tensor<1x4xi32>) outs(%3184 : tensor<?x32x2x16x8x128xf16>) {
    ^bb0(%arg7: f16, %arg8: f16):
      iree_linalg_ext.yield %arg7 : f16
    } -> tensor<?x32x2x16x8x128xf16>
    %extracted_slice_2025 = tensor.extract_slice %3169[3, 0, 0, 0] [1, 1, 8, 128] [1, 1, 1, 1] : tensor<4x1x8x128xf16> to tensor<1x1x8x128xf16>
    %collapsed_2026 = tensor.collapse_shape %extracted_slice_2025 [[0, 1, 2], [3]] : tensor<1x1x8x128xf16> into tensor<8x128xf16>
    %3188 = linalg.generic {indexing_maps = [affine_map<(d0, d1, d2) -> (d1, d2)>, affine_map<(d0, d1, d2) -> (d0, d1, d2)>], iterator_types = ["parallel", "parallel", "parallel"]} ins(%collapsed_2026 : tensor<8x128xf16>) outs(%81 : tensor<1x8x128xf16>) {
    ^bb0(%in: f16, %out: f16):
      linalg.yield %in : f16
    } -> tensor<1x8x128xf16>
    %concat_2027 = tensor.concat dim(1) %expanded_102, %cst, %cst_30, %expanded_103 : (tensor<1x1xi64>, tensor<1x1xi64>, tensor<1x1xi64>, tensor<1x1xi64>) -> tensor<1x4xi64>
    %expanded_2028 = tensor.expand_shape %3188 [[0], [1, 2, 3, 4, 5], [6]] output_shape [1, 1, 1, 1, 1, 8, 128] : tensor<1x8x128xf16> into tensor<1x1x1x1x1x8x128xf16>
    %3189 = linalg.generic {indexing_maps = [affine_map<(d0, d1) -> (0, d1)>, affine_map<(d0, d1) -> (d0, d1)>], iterator_types = ["parallel", "parallel"]} ins(%concat_2027 : tensor<1x4xi64>) outs(%83 : tensor<1x4xi32>) {
    ^bb0(%in: i64, %out: i32):
      %3261 = arith.trunci %in : i64 to i32
      linalg.yield %3261 : i32
    } -> tensor<1x4xi32>
    %3190 = iree_linalg_ext.scatter dimension_map = [0, 1, 2, 3] unique_indices(false) ins(%expanded_2028, %3189 : tensor<1x1x1x1x1x8x128xf16>, tensor<1x4xi32>) outs(%3187 : tensor<?x32x2x16x8x128xf16>) {
    ^bb0(%arg7: f16, %arg8: f16):
      iree_linalg_ext.yield %arg7 : f16
    } -> tensor<?x32x2x16x8x128xf16>
    %extracted_slice_2029 = tensor.extract_slice %expanded_1996[3, 0, 0, 0] [1, 1, 8, 128] [1, 1, 1, 1] : tensor<4x1x8x128xf16> to tensor<1x1x8x128xf16>
    %collapsed_2030 = tensor.collapse_shape %extracted_slice_2029 [[0, 1, 2], [3]] : tensor<1x1x8x128xf16> into tensor<8x128xf16>
    %3191 = linalg.generic {indexing_maps = [affine_map<(d0, d1, d2) -> (d1, d2)>, affine_map<(d0, d1, d2) -> (d0, d1, d2)>], iterator_types = ["parallel", "parallel", "parallel"]} ins(%collapsed_2030 : tensor<8x128xf16>) outs(%81 : tensor<1x8x128xf16>) {
    ^bb0(%in: f16, %out: f16):
      linalg.yield %in : f16
    } -> tensor<1x8x128xf16>
    %concat_2031 = tensor.concat dim(1) %expanded_102, %cst, %cst_29, %expanded_103 : (tensor<1x1xi64>, tensor<1x1xi64>, tensor<1x1xi64>, tensor<1x1xi64>) -> tensor<1x4xi64>
    %expanded_2032 = tensor.expand_shape %3191 [[0], [1, 2, 3, 4, 5], [6]] output_shape [1, 1, 1, 1, 1, 8, 128] : tensor<1x8x128xf16> into tensor<1x1x1x1x1x8x128xf16>
    %3192 = linalg.generic {indexing_maps = [affine_map<(d0, d1) -> (0, d1)>, affine_map<(d0, d1) -> (d0, d1)>], iterator_types = ["parallel", "parallel"]} ins(%concat_2031 : tensor<1x4xi64>) outs(%83 : tensor<1x4xi32>) {
    ^bb0(%in: i64, %out: i32):
      %3261 = arith.trunci %in : i64 to i32
      linalg.yield %3261 : i32
    } -> tensor<1x4xi32>
    %3193 = iree_linalg_ext.scatter dimension_map = [0, 1, 2, 3] unique_indices(false) ins(%expanded_2032, %3192 : tensor<1x1x1x1x1x8x128xf16>, tensor<1x4xi32>) outs(%3190 : tensor<?x32x2x16x8x128xf16>) {
    ^bb0(%arg7: f16, %arg8: f16):
      iree_linalg_ext.yield %arg7 : f16
    } -> tensor<?x32x2x16x8x128xf16>
    %collapsed_2033 = tensor.collapse_shape %3193 [[0], [1, 2, 3, 4, 5]] : tensor<?x32x2x16x8x128xf16> into tensor<?x1048576xf16>
    %3194 = linalg.generic {indexing_maps = [affine_map<(d0, d1) -> (d0, d1)>, affine_map<(d0, d1) -> (d0, d1)>], iterator_types = ["parallel", "parallel"]} ins(%126 : tensor<4x?xi64>) outs(%125 : tensor<4x?xi64>) {
    ^bb0(%in: i64, %out: i64):
      %3261 = arith.addi %in, %c62_i64 : i64
      linalg.yield %3261 : i64
    } -> tensor<4x?xi64>
    %collapsed_2034 = tensor.collapse_shape %3194 [[0, 1]] : tensor<4x?xi64> into tensor<?xi64>
    %collapsed_2035 = tensor.collapse_shape %3193 [[0, 1, 2], [3], [4], [5]] : tensor<?x32x2x16x8x128xf16> into tensor<?x16x8x128xf16>
    %3195 = linalg.generic {indexing_maps = [affine_map<(d0, d1, d2, d3) -> (d0)>, affine_map<(d0, d1, d2, d3) -> (d0, d1, d2, d3)>], iterator_types = ["parallel", "parallel", "parallel", "parallel"]} ins(%collapsed_2034 : tensor<?xi64>) outs(%128 : tensor<?x16x8x128xf16>) {
    ^bb0(%in: i64, %out: f16):
      %3261 = arith.index_cast %in : i64 to index
      %3262 = linalg.index 1 : index
      %3263 = linalg.index 2 : index
      %3264 = linalg.index 3 : index
      %extracted = tensor.extract %collapsed_2035[%3261, %3262, %3263, %3264] : tensor<?x16x8x128xf16>
      linalg.yield %extracted : f16
    } -> tensor<?x16x8x128xf16>
    %expanded_2036 = tensor.expand_shape %3195 [[0, 1], [2], [3], [4]] output_shape [4, %130, 16, 8, 128] : tensor<?x16x8x128xf16> into tensor<4x?x16x8x128xf16>
    %collapsed_2037 = tensor.collapse_shape %expanded_2036 [[0], [1, 2], [3], [4]] : tensor<4x?x16x8x128xf16> into tensor<4x?x8x128xf16>
    %3196 = linalg.generic {indexing_maps = [affine_map<(d0, d1) -> (d0, d1)>, affine_map<(d0, d1) -> (d0, d1)>], iterator_types = ["parallel", "parallel"]} ins(%3194 : tensor<4x?xi64>) outs(%125 : tensor<4x?xi64>) {
    ^bb0(%in: i64, %out: i64):
      %3261 = arith.addi %in, %c1_i64 : i64
      linalg.yield %3261 : i64
    } -> tensor<4x?xi64>
    %collapsed_2038 = tensor.collapse_shape %3196 [[0, 1]] : tensor<4x?xi64> into tensor<?xi64>
    %3197 = linalg.generic {indexing_maps = [affine_map<(d0, d1, d2, d3) -> (d0)>, affine_map<(d0, d1, d2, d3) -> (d0, d1, d2, d3)>], iterator_types = ["parallel", "parallel", "parallel", "parallel"]} ins(%collapsed_2038 : tensor<?xi64>) outs(%128 : tensor<?x16x8x128xf16>) {
    ^bb0(%in: i64, %out: f16):
      %3261 = arith.index_cast %in : i64 to index
      %3262 = linalg.index 1 : index
      %3263 = linalg.index 2 : index
      %3264 = linalg.index 3 : index
      %extracted = tensor.extract %collapsed_2035[%3261, %3262, %3263, %3264] : tensor<?x16x8x128xf16>
      linalg.yield %extracted : f16
    } -> tensor<?x16x8x128xf16>
    %expanded_2039 = tensor.expand_shape %3197 [[0, 1], [2], [3], [4]] output_shape [4, %130, 16, 8, 128] : tensor<?x16x8x128xf16> into tensor<4x?x16x8x128xf16>
    %collapsed_2040 = tensor.collapse_shape %expanded_2039 [[0], [1, 2], [3], [4]] : tensor<4x?x16x8x128xf16> into tensor<4x?x8x128xf16>
    %expanded_2041 = tensor.expand_shape %collapsed_2037 [[0], [1], [2], [3, 4]] output_shape [4, %135, 8, 1, 128] : tensor<4x?x8x128xf16> into tensor<4x?x8x1x128xf16>
    %3198 = linalg.generic {indexing_maps = [affine_map<(d0, d1, d2, d3, d4) -> (d0, d1, d2, 0, d4)>, affine_map<(d0, d1, d2, d3, d4) -> (d0, d1, d2, d3, d4)>], iterator_types = ["parallel", "parallel", "parallel", "parallel", "parallel"]} ins(%expanded_2041 : tensor<4x?x8x1x128xf16>) outs(%136 : tensor<4x?x8x4x128xf16>) {
    ^bb0(%in: f16, %out: f16):
      linalg.yield %in : f16
    } -> tensor<4x?x8x4x128xf16>
    %collapsed_2042 = tensor.collapse_shape %3198 [[0], [1], [2, 3], [4]] : tensor<4x?x8x4x128xf16> into tensor<4x?x32x128xf16>
    %expanded_2043 = tensor.expand_shape %collapsed_2040 [[0], [1], [2], [3, 4]] output_shape [4, %135, 8, 1, 128] : tensor<4x?x8x128xf16> into tensor<4x?x8x1x128xf16>
    %3199 = linalg.generic {indexing_maps = [affine_map<(d0, d1, d2, d3, d4) -> (d0, d1, d2, 0, d4)>, affine_map<(d0, d1, d2, d3, d4) -> (d0, d1, d2, d3, d4)>], iterator_types = ["parallel", "parallel", "parallel", "parallel", "parallel"]} ins(%expanded_2043 : tensor<4x?x8x1x128xf16>) outs(%136 : tensor<4x?x8x4x128xf16>) {
    ^bb0(%in: f16, %out: f16):
      linalg.yield %in : f16
    } -> tensor<4x?x8x4x128xf16>
    %collapsed_2044 = tensor.collapse_shape %3199 [[0], [1], [2, 3], [4]] : tensor<4x?x8x4x128xf16> into tensor<4x?x32x128xf16>
    %3200 = linalg.generic {indexing_maps = [affine_map<(d0, d1, d2, d3) -> (d0, d1, d2, d3)>, affine_map<(d0, d1, d2, d3) -> (d0, d2, d1, d3)>], iterator_types = ["parallel", "parallel", "parallel", "parallel"]} ins(%3168 : tensor<4x1x32x128xf16>) outs(%139 : tensor<4x32x1x128xf16>) {
    ^bb0(%in: f16, %out: f16):
      linalg.yield %in : f16
    } -> tensor<4x32x1x128xf16>
    %3201 = linalg.generic {indexing_maps = [affine_map<(d0, d1, d2, d3) -> (d0, d1, d2, d3)>, affine_map<(d0, d1, d2, d3) -> (d0, d2, d1, d3)>], iterator_types = ["parallel", "parallel", "parallel", "parallel"]} ins(%collapsed_2042 : tensor<4x?x32x128xf16>) outs(%141 : tensor<4x32x?x128xf16>) {
    ^bb0(%in: f16, %out: f16):
      linalg.yield %in : f16
    } -> tensor<4x32x?x128xf16>
    %3202 = linalg.generic {indexing_maps = [affine_map<(d0, d1, d2, d3) -> (d0, d1, d2, d3)>, affine_map<(d0, d1, d2, d3) -> (d0, d2, d1, d3)>], iterator_types = ["parallel", "parallel", "parallel", "parallel"]} ins(%collapsed_2044 : tensor<4x?x32x128xf16>) outs(%141 : tensor<4x32x?x128xf16>) {
    ^bb0(%in: f16, %out: f16):
      linalg.yield %in : f16
    } -> tensor<4x32x?x128xf16>
    %3203 = linalg.generic {indexing_maps = [affine_map<(d0, d1, d2, d3) -> (d0, d1, d2, d3)>, affine_map<(d0, d1, d2, d3) -> (d0, d1, d3, d2)>], iterator_types = ["parallel", "parallel", "parallel", "parallel"]} ins(%3201 : tensor<4x32x?x128xf16>) outs(%144 : tensor<4x32x128x?xf16>) {
    ^bb0(%in: f16, %out: f16):
      linalg.yield %in : f16
    } -> tensor<4x32x128x?xf16>
    %collapsed_2045 = tensor.collapse_shape %3200 [[0, 1], [2], [3]] : tensor<4x32x1x128xf16> into tensor<128x1x128xf16>
    %collapsed_2046 = tensor.collapse_shape %3203 [[0, 1], [2], [3]] : tensor<4x32x128x?xf16> into tensor<128x128x?xf16>
    %3204 = linalg.batch_matmul ins(%collapsed_2045, %collapsed_2046 : tensor<128x1x128xf16>, tensor<128x128x?xf16>) outs(%147 : tensor<128x1x?xf16>) -> tensor<128x1x?xf16>
    %expanded_2047 = tensor.expand_shape %3204 [[0, 1], [2], [3]] output_shape [4, 32, 1, %132] : tensor<128x1x?xf16> into tensor<4x32x1x?xf16>
    %3205 = linalg.generic {indexing_maps = [affine_map<(d0, d1, d2, d3) -> (d0, d1, 0, d3)>, affine_map<(d0, d1, d2, d3) -> (d0, d1, d2, d3)>], iterator_types = ["parallel", "parallel", "parallel", "parallel"]} ins(%expanded_2047 : tensor<4x32x1x?xf16>) outs(%149 : tensor<4x32x1x?xf16>) {
    ^bb0(%in: f16, %out: f16):
      %3261 = arith.truncf %cst_37 : f32 to f16
      %3262 = arith.divf %in, %3261 : f16
      linalg.yield %3262 : f16
    } -> tensor<4x32x1x?xf16>
    %3206 = linalg.generic {indexing_maps = [affine_map<(d0, d1, d2, d3) -> (d0, d1, 0, d3)>, affine_map<(d0, d1, d2, d3) -> (d0, 0, 0, d3)>, affine_map<(d0, d1, d2, d3) -> (d0, d1, d2, d3)>], iterator_types = ["parallel", "parallel", "parallel", "parallel"]} ins(%3205, %expanded_124 : tensor<4x32x1x?xf16>, tensor<4x1x1x?xf16>) outs(%149 : tensor<4x32x1x?xf16>) {
    ^bb0(%in: f16, %in_2061: f16, %out: f16):
      %3261 = arith.addf %in, %in_2061 : f16
      linalg.yield %3261 : f16
    } -> tensor<4x32x1x?xf16>
    %3207 = linalg.generic {indexing_maps = [affine_map<(d0, d1, d2, d3) -> (d0, d1, 0, d3)>, affine_map<(d0, d1, d2, d3) -> (d0, d1, d2, d3)>], iterator_types = ["parallel", "parallel", "parallel", "parallel"]} ins(%3206 : tensor<4x32x1x?xf16>) outs(%152 : tensor<4x32x1x?xf32>) {
    ^bb0(%in: f16, %out: f32):
      %3261 = arith.extf %in : f16 to f32
      linalg.yield %3261 : f32
    } -> tensor<4x32x1x?xf32>
    %3208:2 = linalg.generic {indexing_maps = [affine_map<(d0, d1, d2, d3) -> (d0, d1, d2, d3)>, affine_map<(d0, d1, d2, d3) -> (d0, d1, d2)>, affine_map<(d0, d1, d2, d3) -> (d0, d1, d2)>], iterator_types = ["parallel", "parallel", "parallel", "reduction"]} ins(%3207 : tensor<4x32x1x?xf32>) outs(%157, %155 : tensor<4x32x1xf32>, tensor<4x32x1xi64>) {
    ^bb0(%in: f32, %out: f32, %out_2061: i64):
      %3261 = linalg.index 3 : index
      %3262 = arith.index_cast %3261 : index to i64
      %3263 = arith.maximumf %in, %out : f32
      %3264 = arith.cmpf ogt, %in, %out : f32
      %3265 = arith.select %3264, %3262, %out_2061 : i64
      linalg.yield %3263, %3265 : f32, i64
    } -> (tensor<4x32x1xf32>, tensor<4x32x1xi64>)
    %expanded_2048 = tensor.expand_shape %3208#0 [[0], [1], [2, 3]] output_shape [4, 32, 1, 1] : tensor<4x32x1xf32> into tensor<4x32x1x1xf32>
    %3209 = linalg.generic {indexing_maps = [affine_map<(d0, d1, d2, d3) -> (d0, d1, 0, d3)>, affine_map<(d0, d1, d2, d3) -> (d0, d1, 0, 0)>, affine_map<(d0, d1, d2, d3) -> (d0, d1, d2, d3)>], iterator_types = ["parallel", "parallel", "parallel", "parallel"]} ins(%3207, %expanded_2048 : tensor<4x32x1x?xf32>, tensor<4x32x1x1xf32>) outs(%152 : tensor<4x32x1x?xf32>) {
    ^bb0(%in: f32, %in_2061: f32, %out: f32):
      %3261 = arith.subf %in, %in_2061 : f32
      linalg.yield %3261 : f32
    } -> tensor<4x32x1x?xf32>
    %3210 = linalg.generic {indexing_maps = [affine_map<(d0, d1, d2, d3) -> (d0, d1, 0, d3)>, affine_map<(d0, d1, d2, d3) -> (d0, d1, d2, d3)>], iterator_types = ["parallel", "parallel", "parallel", "parallel"]} ins(%3209 : tensor<4x32x1x?xf32>) outs(%152 : tensor<4x32x1x?xf32>) {
    ^bb0(%in: f32, %out: f32):
      %3261 = math.exp %in : f32
      linalg.yield %3261 : f32
    } -> tensor<4x32x1x?xf32>
    %3211 = linalg.generic {indexing_maps = [affine_map<(d0, d1, d2, d3) -> (d0, d1, d2, d3)>, affine_map<(d0, d1, d2, d3) -> (d0, d1, d2, 0)>], iterator_types = ["parallel", "parallel", "parallel", "reduction"]} ins(%3210 : tensor<4x32x1x?xf32>) outs(%162 : tensor<4x32x1x1xf32>) {
    ^bb0(%in: f32, %out: f32):
      %3261 = arith.addf %in, %out : f32
      linalg.yield %3261 : f32
    } -> tensor<4x32x1x1xf32>
    %3212 = linalg.generic {indexing_maps = [affine_map<(d0, d1, d2, d3) -> (d0, d1, 0, d3)>, affine_map<(d0, d1, d2, d3) -> (d0, d1, 0, 0)>, affine_map<(d0, d1, d2, d3) -> (d0, d1, d2, d3)>], iterator_types = ["parallel", "parallel", "parallel", "parallel"]} ins(%3210, %3211 : tensor<4x32x1x?xf32>, tensor<4x32x1x1xf32>) outs(%152 : tensor<4x32x1x?xf32>) {
    ^bb0(%in: f32, %in_2061: f32, %out: f32):
      %3261 = arith.divf %in, %in_2061 : f32
      linalg.yield %3261 : f32
    } -> tensor<4x32x1x?xf32>
    %3213 = linalg.generic {indexing_maps = [affine_map<(d0, d1, d2, d3) -> (d0, d1, 0, d3)>, affine_map<(d0, d1, d2, d3) -> (d0, d1, d2, d3)>], iterator_types = ["parallel", "parallel", "parallel", "parallel"]} ins(%3212 : tensor<4x32x1x?xf32>) outs(%149 : tensor<4x32x1x?xf16>) {
    ^bb0(%in: f32, %out: f16):
      %3261 = arith.truncf %in : f32 to f16
      linalg.yield %3261 : f16
    } -> tensor<4x32x1x?xf16>
    %collapsed_2049 = tensor.collapse_shape %3213 [[0, 1], [2], [3]] : tensor<4x32x1x?xf16> into tensor<128x1x?xf16>
    %collapsed_2050 = tensor.collapse_shape %3202 [[0, 1], [2], [3]] : tensor<4x32x?x128xf16> into tensor<128x?x128xf16>
    %3214 = linalg.batch_matmul ins(%collapsed_2049, %collapsed_2050 : tensor<128x1x?xf16>, tensor<128x?x128xf16>) outs(%167 : tensor<128x1x128xf16>) -> tensor<128x1x128xf16>
    %expanded_2051 = tensor.expand_shape %3214 [[0, 1], [2], [3]] output_shape [4, 32, 1, 128] : tensor<128x1x128xf16> into tensor<4x32x1x128xf16>
    %3215 = linalg.generic {indexing_maps = [affine_map<(d0, d1, d2, d3) -> (d0, d1, d2, d3)>, affine_map<(d0, d1, d2, d3) -> (d0, d2, d1, d3)>], iterator_types = ["parallel", "parallel", "parallel", "parallel"]} ins(%expanded_2051 : tensor<4x32x1x128xf16>) outs(%71 : tensor<4x1x32x128xf16>) {
    ^bb0(%in: f16, %out: f16):
      linalg.yield %in : f16
    } -> tensor<4x1x32x128xf16>
    %collapsed_2052 = tensor.collapse_shape %3215 [[0], [1], [2, 3]] : tensor<4x1x32x128xf16> into tensor<4x1x4096xf16>
    %3216 = linalg.generic {indexing_maps = [affine_map<(d0, d1) -> (d0, d1)>, affine_map<(d0, d1) -> (d1, d0)>], iterator_types = ["parallel", "parallel"]} ins(%__auto.blk.31.attn_output.weight : tensor<4096x4096xf16>) outs(%42 : tensor<4096x4096xf16>) {
    ^bb0(%in: f16, %out: f16):
      linalg.yield %in : f16
    } -> tensor<4096x4096xf16>
    %3217 = linalg.generic {indexing_maps = [affine_map<(d0, d1, d2) -> (d1, d2)>, affine_map<(d0, d1, d2) -> (d0, d1, d2)>], iterator_types = ["parallel", "parallel", "parallel"]} ins(%3216 : tensor<4096x4096xf16>) outs(%171 : tensor<4x4096x4096xf16>) {
    ^bb0(%in: f16, %out: f16):
      linalg.yield %in : f16
    } -> tensor<4x4096x4096xf16>
    %3218 = linalg.batch_matmul ins(%collapsed_2052, %3217 : tensor<4x1x4096xf16>, tensor<4x4096x4096xf16>) outs(%173 : tensor<4x1x4096xf16>) -> tensor<4x1x4096xf16>
    %3219 = linalg.generic {indexing_maps = [affine_map<(d0, d1, d2) -> (d0, 0, d2)>, affine_map<(d0, d1, d2) -> (d0, 0, d2)>, affine_map<(d0, d1, d2) -> (d0, d1, d2)>], iterator_types = ["parallel", "parallel", "parallel"]} ins(%3143, %3218 : tensor<4x1x4096xf16>, tensor<4x1x4096xf16>) outs(%28 : tensor<4x1x4096xf16>) {
    ^bb0(%in: f16, %in_2061: f16, %out: f16):
      %3261 = arith.addf %in, %in_2061 : f16
      linalg.yield %3261 : f16
    } -> tensor<4x1x4096xf16>
    %3220 = linalg.generic {indexing_maps = [affine_map<(d0, d1, d2) -> (d0, 0, d2)>, affine_map<(d0, d1, d2) -> (d0, d1, d2)>], iterator_types = ["parallel", "parallel", "parallel"]} ins(%3219 : tensor<4x1x4096xf16>) outs(%30 : tensor<4x1x4096xf32>) {
    ^bb0(%in: f16, %out: f32):
      %3261 = arith.extf %in : f16 to f32
      linalg.yield %3261 : f32
    } -> tensor<4x1x4096xf32>
    %3221 = linalg.generic {indexing_maps = [affine_map<(d0, d1, d2) -> (d0, 0, d2)>, affine_map<(d0, d1, d2) -> (d0, d1, d2)>], iterator_types = ["parallel", "parallel", "parallel"]} ins(%3220 : tensor<4x1x4096xf32>) outs(%30 : tensor<4x1x4096xf32>) {
    ^bb0(%in: f32, %out: f32):
      %3261 = math.powf %in, %cst_38 : f32
      linalg.yield %3261 : f32
    } -> tensor<4x1x4096xf32>
    %3222 = linalg.generic {indexing_maps = [affine_map<(d0, d1, d2) -> (d0, d1, d2)>, affine_map<(d0, d1, d2) -> (d0, d1, 0)>], iterator_types = ["parallel", "parallel", "reduction"]} ins(%3221 : tensor<4x1x4096xf32>) outs(%34 : tensor<4x1x1xf32>) {
    ^bb0(%in: f32, %out: f32):
      %3261 = arith.addf %in, %out : f32
      linalg.yield %3261 : f32
    } -> tensor<4x1x1xf32>
    %3223 = linalg.generic {indexing_maps = [affine_map<(d0, d1, d2) -> (d0, 0, 0)>, affine_map<(d0, d1, d2) -> (d0, d1, d2)>], iterator_types = ["parallel", "parallel", "parallel"]} ins(%3222 : tensor<4x1x1xf32>) outs(%33 : tensor<4x1x1xf32>) {
    ^bb0(%in: f32, %out: f32):
      %3261 = arith.divf %in, %cst_39 : f32
      linalg.yield %3261 : f32
    } -> tensor<4x1x1xf32>
    %3224 = linalg.generic {indexing_maps = [affine_map<(d0, d1, d2) -> (d0, 0, 0)>, affine_map<(d0, d1, d2) -> (d0, d1, d2)>], iterator_types = ["parallel", "parallel", "parallel"]} ins(%3223 : tensor<4x1x1xf32>) outs(%33 : tensor<4x1x1xf32>) {
    ^bb0(%in: f32, %out: f32):
      %3261 = arith.addf %in, %cst_40 : f32
      linalg.yield %3261 : f32
    } -> tensor<4x1x1xf32>
    %3225 = linalg.generic {indexing_maps = [affine_map<(d0, d1, d2) -> (d0, 0, 0)>, affine_map<(d0, d1, d2) -> (d0, d1, d2)>], iterator_types = ["parallel", "parallel", "parallel"]} ins(%3224 : tensor<4x1x1xf32>) outs(%33 : tensor<4x1x1xf32>) {
    ^bb0(%in: f32, %out: f32):
      %3261 = math.rsqrt %in : f32
      linalg.yield %3261 : f32
    } -> tensor<4x1x1xf32>
    %3226 = linalg.generic {indexing_maps = [affine_map<(d0, d1, d2) -> (d0, 0, d2)>, affine_map<(d0, d1, d2) -> (d0, 0, 0)>, affine_map<(d0, d1, d2) -> (d0, d1, d2)>], iterator_types = ["parallel", "parallel", "parallel"]} ins(%3220, %3225 : tensor<4x1x4096xf32>, tensor<4x1x1xf32>) outs(%30 : tensor<4x1x4096xf32>) {
    ^bb0(%in: f32, %in_2061: f32, %out: f32):
      %3261 = arith.mulf %in, %in_2061 : f32
      linalg.yield %3261 : f32
    } -> tensor<4x1x4096xf32>
    %3227 = linalg.generic {indexing_maps = [affine_map<(d0, d1, d2) -> (d0, 0, d2)>, affine_map<(d0, d1, d2) -> (d2)>, affine_map<(d0, d1, d2) -> (d0, d1, d2)>], iterator_types = ["parallel", "parallel", "parallel"]} ins(%3226, %__auto.blk.31.ffn_norm.weight : tensor<4x1x4096xf32>, tensor<4096xf32>) outs(%30 : tensor<4x1x4096xf32>) {
    ^bb0(%in: f32, %in_2061: f32, %out: f32):
      %3261 = arith.mulf %in, %in_2061 : f32
      linalg.yield %3261 : f32
    } -> tensor<4x1x4096xf32>
    %3228 = linalg.generic {indexing_maps = [affine_map<(d0, d1, d2) -> (d0, 0, d2)>, affine_map<(d0, d1, d2) -> (d0, d1, d2)>], iterator_types = ["parallel", "parallel", "parallel"]} ins(%3227 : tensor<4x1x4096xf32>) outs(%28 : tensor<4x1x4096xf16>) {
    ^bb0(%in: f32, %out: f16):
      %3261 = arith.truncf %in : f32 to f16
      linalg.yield %3261 : f16
    } -> tensor<4x1x4096xf16>
    %3229 = linalg.generic {indexing_maps = [affine_map<(d0, d1) -> (d0, d1)>, affine_map<(d0, d1) -> (d1, d0)>], iterator_types = ["parallel", "parallel"]} ins(%__auto.blk.31.ffn_gate.weight : tensor<14336x4096xf16>) outs(%185 : tensor<4096x14336xf16>) {
    ^bb0(%in: f16, %out: f16):
      linalg.yield %in : f16
    } -> tensor<4096x14336xf16>
    %collapsed_2053 = tensor.collapse_shape %3228 [[0], [1, 2]] : tensor<4x1x4096xf16> into tensor<4x4096xf16>
    %3230 = linalg.matmul ins(%collapsed_2053, %3229 : tensor<4x4096xf16>, tensor<4096x14336xf16>) outs(%188 : tensor<4x14336xf32>) -> tensor<4x14336xf32>
    %3231 = linalg.generic {indexing_maps = [affine_map<(d0, d1) -> (d0, d1)>, affine_map<(d0, d1) -> (d0, d1)>], iterator_types = ["parallel", "parallel"]} ins(%3230 : tensor<4x14336xf32>) outs(%190 : tensor<4x14336xf16>) {
    ^bb0(%in: f32, %out: f16):
      %3261 = arith.truncf %in : f32 to f16
      linalg.yield %3261 : f16
    } -> tensor<4x14336xf16>
    %expanded_2054 = tensor.expand_shape %3231 [[0], [1, 2]] output_shape [4, 1, 14336] : tensor<4x14336xf16> into tensor<4x1x14336xf16>
    %3232 = linalg.generic {indexing_maps = [affine_map<(d0, d1, d2) -> (d0, 0, d2)>, affine_map<(d0, d1, d2) -> (d0, d1, d2)>], iterator_types = ["parallel", "parallel", "parallel"]} ins(%expanded_2054 : tensor<4x1x14336xf16>) outs(%192 : tensor<4x1x14336xf16>) {
    ^bb0(%in: f16, %out: f16):
      %3261 = arith.negf %in : f16
      %3262 = math.exp %3261 : f16
      %3263 = arith.addf %3262, %cst_36 : f16
      %3264 = arith.divf %cst_36, %3263 : f16
      linalg.yield %3264 : f16
    } -> tensor<4x1x14336xf16>
    %3233 = linalg.generic {indexing_maps = [affine_map<(d0, d1, d2) -> (d0, 0, d2)>, affine_map<(d0, d1, d2) -> (d0, 0, d2)>, affine_map<(d0, d1, d2) -> (d0, d1, d2)>], iterator_types = ["parallel", "parallel", "parallel"]} ins(%3232, %expanded_2054 : tensor<4x1x14336xf16>, tensor<4x1x14336xf16>) outs(%192 : tensor<4x1x14336xf16>) {
    ^bb0(%in: f16, %in_2061: f16, %out: f16):
      %3261 = arith.mulf %in, %in_2061 : f16
      linalg.yield %3261 : f16
    } -> tensor<4x1x14336xf16>
    %3234 = linalg.generic {indexing_maps = [affine_map<(d0, d1) -> (d0, d1)>, affine_map<(d0, d1) -> (d1, d0)>], iterator_types = ["parallel", "parallel"]} ins(%__auto.blk.31.ffn_up.weight : tensor<14336x4096xf16>) outs(%185 : tensor<4096x14336xf16>) {
    ^bb0(%in: f16, %out: f16):
      linalg.yield %in : f16
    } -> tensor<4096x14336xf16>
    %3235 = linalg.matmul ins(%collapsed_2053, %3234 : tensor<4x4096xf16>, tensor<4096x14336xf16>) outs(%188 : tensor<4x14336xf32>) -> tensor<4x14336xf32>
    %3236 = linalg.generic {indexing_maps = [affine_map<(d0, d1) -> (d0, d1)>, affine_map<(d0, d1) -> (d0, d1)>], iterator_types = ["parallel", "parallel"]} ins(%3235 : tensor<4x14336xf32>) outs(%190 : tensor<4x14336xf16>) {
    ^bb0(%in: f32, %out: f16):
      %3261 = arith.truncf %in : f32 to f16
      linalg.yield %3261 : f16
    } -> tensor<4x14336xf16>
    %expanded_2055 = tensor.expand_shape %3236 [[0], [1, 2]] output_shape [4, 1, 14336] : tensor<4x14336xf16> into tensor<4x1x14336xf16>
    %3237 = linalg.generic {indexing_maps = [affine_map<(d0, d1, d2) -> (d0, 0, d2)>, affine_map<(d0, d1, d2) -> (d0, 0, d2)>, affine_map<(d0, d1, d2) -> (d0, d1, d2)>], iterator_types = ["parallel", "parallel", "parallel"]} ins(%3233, %expanded_2055 : tensor<4x1x14336xf16>, tensor<4x1x14336xf16>) outs(%192 : tensor<4x1x14336xf16>) {
    ^bb0(%in: f16, %in_2061: f16, %out: f16):
      %3261 = arith.mulf %in, %in_2061 : f16
      linalg.yield %3261 : f16
    } -> tensor<4x1x14336xf16>
    %3238 = linalg.generic {indexing_maps = [affine_map<(d0, d1) -> (d0, d1)>, affine_map<(d0, d1) -> (d1, d0)>], iterator_types = ["parallel", "parallel"]} ins(%__auto.blk.31.ffn_down.weight : tensor<4096x14336xf16>) outs(%199 : tensor<14336x4096xf16>) {
    ^bb0(%in: f16, %out: f16):
      linalg.yield %in : f16
    } -> tensor<14336x4096xf16>
    %collapsed_2056 = tensor.collapse_shape %3237 [[0], [1, 2]] : tensor<4x1x14336xf16> into tensor<4x14336xf16>
    %3239 = linalg.matmul ins(%collapsed_2056, %3238 : tensor<4x14336xf16>, tensor<14336x4096xf16>) outs(%45 : tensor<4x4096xf32>) -> tensor<4x4096xf32>
    %3240 = linalg.generic {indexing_maps = [affine_map<(d0, d1) -> (d0, d1)>, affine_map<(d0, d1) -> (d0, d1)>], iterator_types = ["parallel", "parallel"]} ins(%3239 : tensor<4x4096xf32>) outs(%47 : tensor<4x4096xf16>) {
    ^bb0(%in: f32, %out: f16):
      %3261 = arith.truncf %in : f32 to f16
      linalg.yield %3261 : f16
    } -> tensor<4x4096xf16>
    %expanded_2057 = tensor.expand_shape %3240 [[0], [1, 2]] output_shape [4, 1, 4096] : tensor<4x4096xf16> into tensor<4x1x4096xf16>
    %3241 = linalg.generic {indexing_maps = [affine_map<(d0, d1, d2) -> (d0, 0, d2)>, affine_map<(d0, d1, d2) -> (d0, 0, d2)>, affine_map<(d0, d1, d2) -> (d0, d1, d2)>], iterator_types = ["parallel", "parallel", "parallel"]} ins(%3219, %expanded_2057 : tensor<4x1x4096xf16>, tensor<4x1x4096xf16>) outs(%28 : tensor<4x1x4096xf16>) {
    ^bb0(%in: f16, %in_2061: f16, %out: f16):
      %3261 = arith.addf %in, %in_2061 : f16
      linalg.yield %3261 : f16
    } -> tensor<4x1x4096xf16>
    %3242 = linalg.generic {indexing_maps = [affine_map<(d0, d1, d2) -> (d0, 0, d2)>, affine_map<(d0, d1, d2) -> (d0, d1, d2)>], iterator_types = ["parallel", "parallel", "parallel"]} ins(%3241 : tensor<4x1x4096xf16>) outs(%30 : tensor<4x1x4096xf32>) {
    ^bb0(%in: f16, %out: f32):
      %3261 = arith.extf %in : f16 to f32
      linalg.yield %3261 : f32
    } -> tensor<4x1x4096xf32>
    %3243 = linalg.generic {indexing_maps = [affine_map<(d0, d1, d2) -> (d0, 0, d2)>, affine_map<(d0, d1, d2) -> (d0, d1, d2)>], iterator_types = ["parallel", "parallel", "parallel"]} ins(%3242 : tensor<4x1x4096xf32>) outs(%30 : tensor<4x1x4096xf32>) {
    ^bb0(%in: f32, %out: f32):
      %3261 = math.powf %in, %cst_38 : f32
      linalg.yield %3261 : f32
    } -> tensor<4x1x4096xf32>
    %3244 = linalg.generic {indexing_maps = [affine_map<(d0, d1, d2) -> (d0, d1, d2)>, affine_map<(d0, d1, d2) -> (d0, d1, 0)>], iterator_types = ["parallel", "parallel", "reduction"]} ins(%3243 : tensor<4x1x4096xf32>) outs(%34 : tensor<4x1x1xf32>) {
    ^bb0(%in: f32, %out: f32):
      %3261 = arith.addf %in, %out : f32
      linalg.yield %3261 : f32
    } -> tensor<4x1x1xf32>
    %3245 = linalg.generic {indexing_maps = [affine_map<(d0, d1, d2) -> (d0, 0, 0)>, affine_map<(d0, d1, d2) -> (d0, d1, d2)>], iterator_types = ["parallel", "parallel", "parallel"]} ins(%3244 : tensor<4x1x1xf32>) outs(%33 : tensor<4x1x1xf32>) {
    ^bb0(%in: f32, %out: f32):
      %3261 = arith.divf %in, %cst_39 : f32
      linalg.yield %3261 : f32
    } -> tensor<4x1x1xf32>
    %3246 = linalg.generic {indexing_maps = [affine_map<(d0, d1, d2) -> (d0, 0, 0)>, affine_map<(d0, d1, d2) -> (d0, d1, d2)>], iterator_types = ["parallel", "parallel", "parallel"]} ins(%3245 : tensor<4x1x1xf32>) outs(%33 : tensor<4x1x1xf32>) {
    ^bb0(%in: f32, %out: f32):
      %3261 = arith.addf %in, %cst_40 : f32
      linalg.yield %3261 : f32
    } -> tensor<4x1x1xf32>
    %3247 = linalg.generic {indexing_maps = [affine_map<(d0, d1, d2) -> (d0, 0, 0)>, affine_map<(d0, d1, d2) -> (d0, d1, d2)>], iterator_types = ["parallel", "parallel", "parallel"]} ins(%3246 : tensor<4x1x1xf32>) outs(%33 : tensor<4x1x1xf32>) {
    ^bb0(%in: f32, %out: f32):
      %3261 = math.rsqrt %in : f32
      linalg.yield %3261 : f32
    } -> tensor<4x1x1xf32>
    %3248 = linalg.generic {indexing_maps = [affine_map<(d0, d1, d2) -> (d0, 0, d2)>, affine_map<(d0, d1, d2) -> (d0, 0, 0)>, affine_map<(d0, d1, d2) -> (d0, d1, d2)>], iterator_types = ["parallel", "parallel", "parallel"]} ins(%3242, %3247 : tensor<4x1x4096xf32>, tensor<4x1x1xf32>) outs(%30 : tensor<4x1x4096xf32>) {
    ^bb0(%in: f32, %in_2061: f32, %out: f32):
      %3261 = arith.mulf %in, %in_2061 : f32
      linalg.yield %3261 : f32
    } -> tensor<4x1x4096xf32>
    %3249 = linalg.generic {indexing_maps = [affine_map<(d0, d1, d2) -> (d0, 0, d2)>, affine_map<(d0, d1, d2) -> (d2)>, affine_map<(d0, d1, d2) -> (d0, d1, d2)>], iterator_types = ["parallel", "parallel", "parallel"]} ins(%3248, %__auto.output_norm.weight : tensor<4x1x4096xf32>, tensor<4096xf32>) outs(%30 : tensor<4x1x4096xf32>) {
    ^bb0(%in: f32, %in_2061: f32, %out: f32):
      %3261 = arith.mulf %in, %in_2061 : f32
      linalg.yield %3261 : f32
    } -> tensor<4x1x4096xf32>
    %3250 = linalg.generic {indexing_maps = [affine_map<(d0, d1, d2) -> (d0, 0, d2)>, affine_map<(d0, d1, d2) -> (d0, d1, d2)>], iterator_types = ["parallel", "parallel", "parallel"]} ins(%3249 : tensor<4x1x4096xf32>) outs(%28 : tensor<4x1x4096xf16>) {
    ^bb0(%in: f32, %out: f16):
      %3261 = arith.truncf %in : f32 to f16
      linalg.yield %3261 : f16
    } -> tensor<4x1x4096xf16>
    %3251 = tensor.empty() : tensor<4096x128256xf16>
    %3252 = linalg.generic {indexing_maps = [affine_map<(d0, d1) -> (d0, d1)>, affine_map<(d0, d1) -> (d1, d0)>], iterator_types = ["parallel", "parallel"]} ins(%__auto.output.weight : tensor<128256x4096xf16>) outs(%3251 : tensor<4096x128256xf16>) {
    ^bb0(%in: f16, %out: f16):
      linalg.yield %in : f16
    } -> tensor<4096x128256xf16>
    %collapsed_2058 = tensor.collapse_shape %3250 [[0], [1, 2]] : tensor<4x1x4096xf16> into tensor<4x4096xf16>
    %3253 = tensor.empty() : tensor<4x128256xf32>
    %3254 = linalg.fill ins(%cst_33 : f32) outs(%3253 : tensor<4x128256xf32>) -> tensor<4x128256xf32>
    %3255 = linalg.matmul ins(%collapsed_2058, %3252 : tensor<4x4096xf16>, tensor<4096x128256xf16>) outs(%3254 : tensor<4x128256xf32>) -> tensor<4x128256xf32>
    %3256 = tensor.empty() : tensor<4x128256xf16>
    %3257 = linalg.generic {indexing_maps = [affine_map<(d0, d1) -> (d0, d1)>, affine_map<(d0, d1) -> (d0, d1)>], iterator_types = ["parallel", "parallel"]} ins(%3255 : tensor<4x128256xf32>) outs(%3256 : tensor<4x128256xf16>) {
    ^bb0(%in: f32, %out: f16):
      %3261 = arith.truncf %in : f32 to f16
      linalg.yield %3261 : f16
    } -> tensor<4x128256xf16>
    %expanded_2059 = tensor.expand_shape %3257 [[0], [1, 2]] output_shape [4, 1, 128256] : tensor<4x128256xf16> into tensor<4x1x128256xf16>
    %dim_2060 = tensor.dim %3193, %c0 : tensor<?x32x2x16x8x128xf16>
    %3258 = hal.tensor.alias wait(%arg5) => %collapsed_2033 : tensor<?x1048576xf16>{%dim_2060} to %arg4 : !hal.buffer_view
    %3259:2 = hal.tensor.barrier join(%3258, %expanded_2059 : tensor<?x1048576xf16>, tensor<4x1x128256xf16>) => %arg6 : !hal.fence
    %3260 = hal.tensor.export %3259#1 : tensor<4x1x128256xf16> -> !hal.buffer_view
    util.return %3260 : !hal.buffer_view
  }
  util.func public @decode_bs4(%arg0: !hal.buffer_view, %arg1: !hal.buffer_view, %arg2: !hal.buffer_view, %arg3: !hal.buffer_view, %arg4: !hal.buffer_view) -> !hal.buffer_view attributes {iree.abi.stub} {
    %0 = util.null : !hal.fence
    %c-1_i32 = arith.constant -1 : i32
    %c0 = arith.constant 0 : index
    %device_0 = hal.devices.get %c0 : !hal.device
    %fence = hal.fence.create device(%device_0 : !hal.device) flags("None") : !hal.fence
    %1 = util.call @decode_bs4$async(%arg0, %arg1, %arg2, %arg3, %arg4, %0, %fence) : (!hal.buffer_view, !hal.buffer_view, !hal.buffer_view, !hal.buffer_view, !hal.buffer_view, !hal.fence, !hal.fence) -> !hal.buffer_view
    %status = hal.fence.await until([%fence]) timeout_millis(%c-1_i32) : i32
    util.return %1 : !hal.buffer_view
  }
}